{"class_name": "Model", "config": {"name": "model_1", "layers": [{"name": "lipreader_middle", "class_name": "InputLayer", "config": {"batch_input_shape": [null, 1024], "dtype": "float32", "sparse": false, "name": "lipreader_middle"}, "inbound_nodes": []}, {"name": "lipreader_softmax", "class_name": "InputLayer", "config": {"batch_input_shape": [null, 500], "dtype": "float32", "sparse": false, "name": "lipreader_softmax"}, "inbound_nodes": []}, {"name": "dense_1", "class_name": "Dense", "config": {"name": "dense_1", "trainable": true, "units": 128, "activation": "linear", "use_bias": true, "kernel_initializer": {"class_name": "VarianceScaling", "config": {"scale": 1.0, "mode": "fan_avg", "distribution": "uniform", "seed": null}}, "bias_initializer": {"class_name": "Zeros", "config": {}}, "kernel_regularizer": {"class_name": "L1L2", "config": {"l1": 0.0, "l2": 9.999999747378752e-05}}, "bias_regularizer": null, "activity_regularizer": null, "kernel_constraint": null, "bias_constraint": null}, "inbound_nodes": [[["lipreader_middle", 0, 0, {}]]]}, {"name": "dense_2", "class_name": "Dense", "config": {"name": "dense_2", "trainable": true, "units": 64, "activation": "linear", "use_bias": true, "kernel_initializer": {"class_name": "VarianceScaling", "config": {"scale": 1.0, "mode": "fan_avg", "distribution": "uniform", "seed": null}}, "bias_initializer": {"class_name": "Zeros", "config": {}}, "kernel_regularizer": {"class_name": "L1L2", "config": {"l1": 0.0, "l2": 9.999999747378752e-05}}, "bias_regularizer": null, "activity_regularizer": null, "kernel_constraint": null, "bias_constraint": null}, "inbound_nodes": [[["lipreader_softmax", 0, 0, {}]]]}, {"name": "relu_lr_dense", "class_name": "Activation", "config": {"name": "relu_lr_dense", "trainable": true, "activation": "relu"}, "inbound_nodes": [[["dense_1", 0, 0, {}]]]}, {"name": "relu_lr_softmax", "class_name": "Activation", "config": {"name": "relu_lr_softmax", "trainable": true, "activation": "relu"}, "inbound_nodes": [[["dense_2", 0, 0, {}]]]}, {"name": "n_of_frames", "class_name": "InputLayer", "config": {"batch_input_shape": [null, 1], "dtype": "float32", "sparse": false, "name": "n_of_frames"}, "inbound_nodes": []}, {"name": "batch_normalization_1", "class_name": "BatchNormalization", "config": {"name": "batch_normalization_1", "trainable": true, "axis": -1, "momentum": 0.99, "epsilon": 0.001, "center": true, "scale": true, "beta_initializer": {"class_name": "Zeros", "config": {}}, "gamma_initializer": {"class_name": "Ones", "config": {}}, "moving_mean_initializer": {"class_name": "Zeros", "config": {}}, "moving_variance_initializer": {"class_name": "Ones", "config": {}}, "beta_regularizer": null, "gamma_regularizer": null, "beta_constraint": null, "gamma_constraint": null}, "inbound_nodes": [[["relu_lr_dense", 0, 0, {}]]]}, {"name": "batch_normalization_2", "class_name": "BatchNormalization", "config": {"name": "batch_normalization_2", "trainable": true, "axis": -1, "momentum": 0.99, "epsilon": 0.001, "center": true, "scale": true, "beta_initializer": {"class_name": "Zeros", "config": {}}, "gamma_initializer": {"class_name": "Ones", "config": {}}, "moving_mean_initializer": {"class_name": "Zeros", "config": {}}, "moving_variance_initializer": {"class_name": "Ones", "config": {}}, "beta_regularizer": null, "gamma_regularizer": null, "beta_constraint": null, "gamma_constraint": null}, "inbound_nodes": [[["relu_lr_softmax", 0, 0, {}]]]}, {"name": "lipreader_softmax_ratios", "class_name": "InputLayer", "config": {"batch_input_shape": [null, 2], "dtype": "float32", "sparse": false, "name": "lipreader_softmax_ratios"}, "inbound_nodes": []}, {"name": "concatenate_1", "class_name": "Concatenate", "config": {"name": "concatenate_1", "trainable": true, "axis": -1}, "inbound_nodes": [[["n_of_frames", 0, 0, {}], ["batch_normalization_1", 0, 0, {}], ["batch_normalization_2", 0, 0, {}], ["lipreader_softmax_ratios", 0, 0, {}]]]}, {"name": "dense_3", "class_name": "Dense", "config": {"name": "dense_3", "trainable": true, "units": 128, "activation": "linear", "use_bias": true, "kernel_initializer": {"class_name": "VarianceScaling", "config": {"scale": 1.0, "mode": "fan_avg", "distribution": "uniform", "seed": null}}, "bias_initializer": {"class_name": "Zeros", "config": {}}, "kernel_regularizer": {"class_name": "L1L2", "config": {"l1": 0.0, "l2": 9.999999747378752e-05}}, "bias_regularizer": null, "activity_regularizer": null, "kernel_constraint": null, "bias_constraint": null}, "inbound_nodes": [[["concatenate_1", 0, 0, {}]]]}, {"name": "relu_fc1", "class_name": "Activation", "config": {"name": "relu_fc1", "trainable": true, "activation": "relu"}, "inbound_nodes": [[["dense_3", 0, 0, {}]]]}, {"name": "batch_normalization_3", "class_name": "BatchNormalization", "config": {"name": "batch_normalization_3", "trainable": true, "axis": -1, "momentum": 0.99, "epsilon": 0.001, "center": true, "scale": true, "beta_initializer": {"class_name": "Zeros", "config": {}}, "gamma_initializer": {"class_name": "Ones", "config": {}}, "moving_mean_initializer": {"class_name": "Zeros", "config": {}}, "moving_variance_initializer": {"class_name": "Ones", "config": {}}, "beta_regularizer": null, "gamma_regularizer": null, "beta_constraint": null, "gamma_constraint": null}, "inbound_nodes": [[["relu_fc1", 0, 0, {}]]]}, {"name": "syncnet_preds", "class_name": "InputLayer", "config": {"batch_input_shape": [null, 21, 128], "dtype": "float32", "sparse": false, "name": "syncnet_preds"}, "inbound_nodes": []}, {"name": "dropout1_p0.5", "class_name": "Dropout", "config": {"name": "dropout1_p0.5", "trainable": true, "rate": 0.2, "noise_shape": null, "seed": null}, "inbound_nodes": [[["batch_normalization_3", 0, 0, {}]]]}, {"name": "lstm_1", "class_name": "LSTM", "config": {"name": "lstm_1", "trainable": true, "return_sequences": false, "return_state": false, "go_backwards": false, "stateful": false, "unroll": false, "units": 64, "activation": "tanh", "recurrent_activation": "hard_sigmoid", "use_bias": true, "kernel_initializer": {"class_name": "VarianceScaling", "config": {"scale": 1.0, "mode": "fan_avg", "distribution": "uniform", "seed": null}}, "recurrent_initializer": {"class_name": "Orthogonal", "config": {"gain": 1.0, "seed": null}}, "bias_initializer": {"class_name": "Zeros", "config": {}}, "unit_forget_bias": true, "kernel_regularizer": {"class_name": "L1L2", "config": {"l1": 0.0, "l2": 9.999999747378752e-05}}, "recurrent_regularizer": null, "bias_regularizer": null, "activity_regularizer": null, "kernel_constraint": null, "recurrent_constraint": null, "bias_constraint": null, "dropout": 0.0, "recurrent_dropout": 0.0, "implementation": 1}, "inbound_nodes": [[["syncnet_preds", 0, 0, {}]]]}, {"name": "dense_4", "class_name": "Dense", "config": {"name": "dense_4", "trainable": true, "units": 64, "activation": "linear", "use_bias": true, "kernel_initializer": {"class_name": "VarianceScaling", "config": {"scale": 1.0, "mode": "fan_avg", "distribution": "uniform", "seed": null}}, "bias_initializer": {"class_name": "Zeros", "config": {}}, "kernel_regularizer": {"class_name": "L1L2", "config": {"l1": 0.0, "l2": 9.999999747378752e-05}}, "bias_regularizer": null, "activity_regularizer": null, "kernel_constraint": null, "bias_constraint": null}, "inbound_nodes": [[["dropout1_p0.5", 0, 0, {}]]]}, {"name": "distance", "class_name": "Lambda", "config": {"name": "distance", "trainable": true, "function": ["4wEAAAAAAAAAAwAAAAcAAABDAAAAczQAAAB8AFwCfQF9AnQAagF0AGoCdABqA3QAagR8AXwCGACD\nAWQBZAJkA40DdABqBYMAgwKDAVMAKQRO6QEAAABUKQLaBGF4aXPaCGtlZXBkaW1zKQbaAUvaBHNx\ncnTaB21heGltdW3aA3N1bdoGc3F1YXJl2gdlcHNpbG9uKQNaBXZlY3Rz2gF42gF5qQByDAAAAPpe\nL3NoYXJlZC9mdXNvci9ob21lL3ZvbGV0aS52aWtyYW0vbGlwcmVhZGluZy1pbi10aGUtd2lsZC1l\neHBlcmltZW50cy9hc3Nlc3Nvci9hc3Nlc3Nvcl9tb2RlbC5wedoSZXVjbGlkZWFuX2Rpc3RhbmNl\nHQAAAHMEAAAAAAEIAQ==\n", null, null], "function_type": "lambda", "output_shape": ["4wEAAAAAAAAAAwAAAAIAAABDAAAAcxQAAAB8AFwCfQF9AnwBZAEZAGQCZgJTACkDTukAAAAA6QEA\nAACpACkD2gZzaGFwZXPaBnNoYXBlMdoGc2hhcGUycgMAAAByAwAAAPpeL3NoYXJlZC9mdXNvci9o\nb21lL3ZvbGV0aS52aWtyYW0vbGlwcmVhZGluZy1pbi10aGUtd2lsZC1leHBlcmltZW50cy9hc3Nl\nc3Nvci9hc3Nlc3Nvcl9tb2RlbC5wedoWZXVjbF9kaXN0X291dHB1dF9zaGFwZSIAAABzBAAAAAAB\nCAE=\n", null, null], "output_shape_type": "lambda", "arguments": {}}, "inbound_nodes": [[["lstm_1", 0, 0, {}], ["dense_4", 0, 0, {}]]]}], "input_layers": [["syncnet_preds", 0, 0], ["n_of_frames", 0, 0], ["lipreader_middle", 0, 0], ["lipreader_softmax", 0, 0], ["lipreader_softmax_ratios", 0, 0]], "output_layers": [["distance", 0, 0]]}, "keras_version": "2.1.3", "backend": "tensorflow"}