backend: tensorflow
class_name: Model
config:
  input_layers:
  - [input_1, 0, 0]
  - [input_2, 0, 0]
  - [input_3, 0, 0]
  - [input_4, 0, 0]
  - [input_5, 0, 0]
  layers:
  - class_name: InputLayer
    config:
      batch_input_shape: !!python/tuple [null, 21, 112, 112, 5]
      dtype: float32
      name: input_1
      sparse: false
    inbound_nodes: []
    name: input_1
  - class_name: Sequential
    config:
    - class_name: TimeDistributed
      config:
        batch_input_shape: !!python/tuple [null, 21, 112, 112, 5]
        dtype: float32
        layer:
          class_name: Conv2D
          config:
            activation: linear
            activity_regularizer: null
            batch_input_shape: !!python/tuple [null, 112, 112, 5]
            bias_constraint: null
            bias_initializer:
              class_name: Zeros
              config: {}
            bias_regularizer: null
            data_format: channels_last
            dilation_rate: &id001 !!python/tuple [1, 1]
            dtype: float32
            filters: 96
            kernel_constraint: null
            kernel_initializer:
              class_name: VarianceScaling
              config: {distribution: uniform, mode: fan_avg, scale: 1.0, seed: null}
            kernel_regularizer: null
            kernel_size: !!python/tuple [3, 3]
            name: conv1_lip
            padding: valid
            strides: &id002 !!python/tuple [1, 1]
            trainable: true
            use_bias: true
        name: time_distributed_1
        trainable: false
    - class_name: TimeDistributed
      config:
        layer:
          class_name: BatchNormalization
          config:
            axis: -1
            beta_constraint: null
            beta_initializer:
              class_name: Zeros
              config: {}
            beta_regularizer: null
            center: true
            epsilon: 0.001
            gamma_constraint: null
            gamma_initializer:
              class_name: Ones
              config: {}
            gamma_regularizer: null
            momentum: 0.99
            moving_mean_initializer:
              class_name: Zeros
              config: {}
            moving_variance_initializer:
              class_name: Ones
              config: {}
            name: bin1_lip
            scale: true
            trainable: true
        name: time_distributed_2
        trainable: false
    - class_name: TimeDistributed
      config:
        layer:
          class_name: Activation
          config: {activation: relu, name: relu1_lip, trainable: true}
        name: time_distributed_3
        trainable: false
    - class_name: TimeDistributed
      config:
        layer:
          class_name: MaxPooling2D
          config:
            data_format: channels_last
            name: pool1_lip
            padding: valid
            pool_size: !!python/tuple [3, 3]
            strides: !!python/tuple [2, 2]
            trainable: true
        name: time_distributed_4
        trainable: false
    - class_name: TimeDistributed
      config:
        layer:
          class_name: Conv2D
          config:
            activation: linear
            activity_regularizer: null
            bias_constraint: null
            bias_initializer:
              class_name: Zeros
              config: {}
            bias_regularizer: null
            data_format: channels_last
            dilation_rate: *id001
            filters: 256
            kernel_constraint: null
            kernel_initializer:
              class_name: VarianceScaling
              config: {distribution: uniform, mode: fan_avg, scale: 1.0, seed: null}
            kernel_regularizer: null
            kernel_size: !!python/tuple [5, 5]
            name: conv2_lip
            padding: valid
            strides: *id002
            trainable: true
            use_bias: true
        name: time_distributed_5
        trainable: false
    - class_name: TimeDistributed
      config:
        layer:
          class_name: BatchNormalization
          config:
            axis: -1
            beta_constraint: null
            beta_initializer:
              class_name: Zeros
              config: {}
            beta_regularizer: null
            center: true
            epsilon: 0.001
            gamma_constraint: null
            gamma_initializer:
              class_name: Ones
              config: {}
            gamma_regularizer: null
            momentum: 0.99
            moving_mean_initializer:
              class_name: Zeros
              config: {}
            moving_variance_initializer:
              class_name: Ones
              config: {}
            name: bn2_lip
            scale: true
            trainable: true
        name: time_distributed_6
        trainable: false
    - class_name: TimeDistributed
      config:
        layer:
          class_name: Activation
          config: {activation: relu, name: relu2_lip, trainable: true}
        name: time_distributed_7
        trainable: false
    - class_name: TimeDistributed
      config:
        layer:
          class_name: MaxPooling2D
          config:
            data_format: channels_last
            name: pool2_lip
            padding: valid
            pool_size: !!python/tuple [3, 3]
            strides: !!python/tuple [2, 2]
            trainable: true
        name: time_distributed_8
        trainable: false
    - class_name: TimeDistributed
      config:
        layer:
          class_name: Conv2D
          config:
            activation: linear
            activity_regularizer: null
            bias_constraint: null
            bias_initializer:
              class_name: Zeros
              config: {}
            bias_regularizer: null
            data_format: channels_last
            dilation_rate: *id001
            filters: 512
            kernel_constraint: null
            kernel_initializer:
              class_name: VarianceScaling
              config: {distribution: uniform, mode: fan_avg, scale: 1.0, seed: null}
            kernel_regularizer: null
            kernel_size: !!python/tuple [3, 3]
            name: conv3_lip
            padding: valid
            strides: *id002
            trainable: true
            use_bias: true
        name: time_distributed_9
        trainable: false
    - class_name: TimeDistributed
      config:
        layer:
          class_name: BatchNormalization
          config:
            axis: -1
            beta_constraint: null
            beta_initializer:
              class_name: Zeros
              config: {}
            beta_regularizer: null
            center: true
            epsilon: 0.001
            gamma_constraint: null
            gamma_initializer:
              class_name: Ones
              config: {}
            gamma_regularizer: null
            momentum: 0.99
            moving_mean_initializer:
              class_name: Zeros
              config: {}
            moving_variance_initializer:
              class_name: Ones
              config: {}
            name: bn3_lip
            scale: true
            trainable: true
        name: time_distributed_10
        trainable: false
    - class_name: TimeDistributed
      config:
        layer:
          class_name: Activation
          config: {activation: relu, name: relu3_lip, trainable: true}
        name: time_distributed_11
        trainable: false
    - class_name: TimeDistributed
      config:
        layer:
          class_name: Conv2D
          config:
            activation: linear
            activity_regularizer: null
            bias_constraint: null
            bias_initializer:
              class_name: Zeros
              config: {}
            bias_regularizer: null
            data_format: channels_last
            dilation_rate: *id001
            filters: 512
            kernel_constraint: null
            kernel_initializer:
              class_name: VarianceScaling
              config: {distribution: uniform, mode: fan_avg, scale: 1.0, seed: null}
            kernel_regularizer: null
            kernel_size: !!python/tuple [3, 3]
            name: conv4_lip
            padding: valid
            strides: *id002
            trainable: true
            use_bias: true
        name: time_distributed_12
        trainable: false
    - class_name: TimeDistributed
      config:
        layer:
          class_name: BatchNormalization
          config:
            axis: -1
            beta_constraint: null
            beta_initializer:
              class_name: Zeros
              config: {}
            beta_regularizer: null
            center: true
            epsilon: 0.001
            gamma_constraint: null
            gamma_initializer:
              class_name: Ones
              config: {}
            gamma_regularizer: null
            momentum: 0.99
            moving_mean_initializer:
              class_name: Zeros
              config: {}
            moving_variance_initializer:
              class_name: Ones
              config: {}
            name: bn4_lip
            scale: true
            trainable: true
        name: time_distributed_13
        trainable: false
    - class_name: TimeDistributed
      config:
        layer:
          class_name: Activation
          config: {activation: relu, name: relu4_lip, trainable: true}
        name: time_distributed_14
        trainable: false
    - class_name: TimeDistributed
      config:
        layer:
          class_name: Conv2D
          config:
            activation: linear
            activity_regularizer: null
            bias_constraint: null
            bias_initializer:
              class_name: Zeros
              config: {}
            bias_regularizer: null
            data_format: channels_last
            dilation_rate: *id001
            filters: 512
            kernel_constraint: null
            kernel_initializer:
              class_name: VarianceScaling
              config: {distribution: uniform, mode: fan_avg, scale: 1.0, seed: null}
            kernel_regularizer: null
            kernel_size: !!python/tuple [3, 3]
            name: conv5_lip
            padding: valid
            strides: *id002
            trainable: true
            use_bias: true
        name: time_distributed_15
        trainable: false
    - class_name: TimeDistributed
      config:
        layer:
          class_name: BatchNormalization
          config:
            axis: -1
            beta_constraint: null
            beta_initializer:
              class_name: Zeros
              config: {}
            beta_regularizer: null
            center: true
            epsilon: 0.001
            gamma_constraint: null
            gamma_initializer:
              class_name: Ones
              config: {}
            gamma_regularizer: null
            momentum: 0.99
            moving_mean_initializer:
              class_name: Zeros
              config: {}
            moving_variance_initializer:
              class_name: Ones
              config: {}
            name: bn5_lip
            scale: true
            trainable: true
        name: time_distributed_16
        trainable: false
    - class_name: TimeDistributed
      config:
        layer:
          class_name: Activation
          config: {activation: relu, name: relu5_lip, trainable: true}
        name: time_distributed_17
        trainable: false
    - class_name: TimeDistributed
      config:
        layer:
          class_name: MaxPooling2D
          config:
            data_format: channels_last
            name: pool5_lip
            padding: valid
            pool_size: !!python/tuple [3, 3]
            strides: !!python/tuple [3, 3]
            trainable: true
        name: time_distributed_18
        trainable: false
    - class_name: TimeDistributed
      config:
        layer:
          class_name: Flatten
          config: {name: flatten, trainable: true}
        name: time_distributed_19
        trainable: false
    - class_name: TimeDistributed
      config:
        layer:
          class_name: Dense
          config:
            activation: linear
            activity_regularizer: null
            bias_constraint: null
            bias_initializer:
              class_name: Zeros
              config: {}
            bias_regularizer: null
            kernel_constraint: null
            kernel_initializer:
              class_name: VarianceScaling
              config: {distribution: uniform, mode: fan_avg, scale: 1.0, seed: null}
            kernel_regularizer: null
            name: fc6_lip
            trainable: true
            units: 256
            use_bias: true
        name: time_distributed_20
        trainable: false
    - class_name: TimeDistributed
      config:
        layer:
          class_name: BatchNormalization
          config:
            axis: -1
            beta_constraint: null
            beta_initializer:
              class_name: Zeros
              config: {}
            beta_regularizer: null
            center: true
            epsilon: 0.001
            gamma_constraint: null
            gamma_initializer:
              class_name: Ones
              config: {}
            gamma_regularizer: null
            momentum: 0.99
            moving_mean_initializer:
              class_name: Zeros
              config: {}
            moving_variance_initializer:
              class_name: Ones
              config: {}
            name: bn6_lip
            scale: true
            trainable: true
        name: time_distributed_21
        trainable: false
    - class_name: TimeDistributed
      config:
        layer:
          class_name: Activation
          config: {activation: relu, name: relu6_lip, trainable: true}
        name: time_distributed_22
        trainable: false
    - class_name: TimeDistributed
      config:
        layer:
          class_name: Dense
          config:
            activation: linear
            activity_regularizer: null
            bias_constraint: null
            bias_initializer:
              class_name: Zeros
              config: {}
            bias_regularizer: null
            kernel_constraint: null
            kernel_initializer:
              class_name: VarianceScaling
              config: {distribution: uniform, mode: fan_avg, scale: 1.0, seed: null}
            kernel_regularizer: null
            name: fc7_lip
            trainable: true
            units: 128
            use_bias: true
        name: time_distributed_23
        trainable: false
    - class_name: TimeDistributed
      config:
        layer:
          class_name: BatchNormalization
          config:
            axis: -1
            beta_constraint: null
            beta_initializer:
              class_name: Zeros
              config: {}
            beta_regularizer: null
            center: true
            epsilon: 0.001
            gamma_constraint: null
            gamma_initializer:
              class_name: Ones
              config: {}
            gamma_regularizer: null
            momentum: 0.99
            moving_mean_initializer:
              class_name: Zeros
              config: {}
            moving_variance_initializer:
              class_name: Ones
              config: {}
            name: bn7_lip
            scale: true
            trainable: true
        name: time_distributed_24
        trainable: false
    - class_name: TimeDistributed
      config:
        layer:
          class_name: Activation
          config: {activation: relu, name: relu7_lip, trainable: true}
        name: time_distributed_25
        trainable: false
    inbound_nodes:
    - - - input_1
        - 0
        - 0
        - {}
    name: sequential_2
  - class_name: InputLayer
    config:
      batch_input_shape: !!python/tuple [null, 21, 3]
      dtype: float32
      name: input_2
      sparse: false
    inbound_nodes: []
    name: input_2
  - class_name: Concatenate
    config: {axis: -1, name: concatenate_1, trainable: true}
    inbound_nodes:
    - - - sequential_2
        - 1
        - 0
        - &id003 {}
      - - input_2
        - 0
        - 0
        - *id003
    name: concatenate_1
  - class_name: LSTM
    config:
      activation: tanh
      activity_regularizer: null
      bias_constraint: null
      bias_initializer:
        class_name: Zeros
        config: {}
      bias_regularizer: null
      dropout: 0.0
      go_backwards: false
      implementation: 1
      kernel_constraint: null
      kernel_initializer:
        class_name: VarianceScaling
        config: {distribution: uniform, mode: fan_avg, scale: 1.0, seed: null}
      kernel_regularizer:
        class_name: L1L2
        config: {l1: 0.0, l2: 9.999999747378752e-05}
      name: lstm_1
      recurrent_activation: hard_sigmoid
      recurrent_constraint: null
      recurrent_dropout: 0.0
      recurrent_initializer:
        class_name: Orthogonal
        config: {gain: 1.0, seed: null}
      recurrent_regularizer: null
      return_sequences: false
      return_state: false
      stateful: false
      trainable: true
      unit_forget_bias: true
      units: 256
      unroll: false
      use_bias: true
    inbound_nodes:
    - - - concatenate_1
        - 0
        - 0
        - {}
    name: lstm_1
  - class_name: InputLayer
    config:
      batch_input_shape: !!python/tuple [null, 1]
      dtype: float32
      name: input_3
      sparse: false
    inbound_nodes: []
    name: input_3
  - class_name: InputLayer
    config:
      batch_input_shape: !!python/tuple [null, 1024]
      dtype: float32
      name: input_4
      sparse: false
    inbound_nodes: []
    name: input_4
  - class_name: InputLayer
    config:
      batch_input_shape: !!python/tuple [null, 500]
      dtype: float32
      name: input_5
      sparse: false
    inbound_nodes: []
    name: input_5
  - class_name: Concatenate
    config: {axis: -1, name: concatenate_2, trainable: true}
    inbound_nodes:
    - - - lstm_1
        - 0
        - 0
        - &id004 {}
      - - input_3
        - 0
        - 0
        - *id004
      - - input_4
        - 0
        - 0
        - *id004
      - - input_5
        - 0
        - 0
        - *id004
    name: concatenate_2
  - class_name: Reshape
    config:
      batch_input_shape: !!python/tuple [null, 1781]
      dtype: float32
      name: reshape_1
      target_shape: !!python/tuple [1781, 1, 1]
      trainable: true
    inbound_nodes:
    - - - concatenate_2
        - 0
        - 0
        - {}
    name: reshape_1
  - class_name: Model
    config:
      input_layers:
      - [input_6, 0, 0]
      layers:
      - class_name: InputLayer
        config:
          batch_input_shape: !!python/tuple [null, 1781, 1, 1]
          dtype: float32
          name: input_6
          sparse: false
        inbound_nodes: []
        name: input_6
      - class_name: Conv2D
        config:
          activation: linear
          activity_regularizer: null
          bias_constraint: null
          bias_initializer:
            class_name: Zeros
            config: {}
          bias_regularizer: null
          data_format: channels_last
          dilation_rate: *id001
          filters: 64
          kernel_constraint: null
          kernel_initializer:
            class_name: VarianceScaling
            config: {distribution: normal, mode: fan_in, scale: 2.0, seed: null}
          kernel_regularizer:
            class_name: L1L2
            config: {l1: 0.0, l2: 9.999999747378752e-05}
          kernel_size: !!python/tuple [7, 7]
          name: conv2d_1
          padding: same
          strides: !!python/tuple [2, 2]
          trainable: true
          use_bias: true
        inbound_nodes:
        - - - input_6
            - 0
            - 0
            - {}
        name: conv2d_1
      - class_name: BatchNormalization
        config:
          axis: 3
          beta_constraint: null
          beta_initializer:
            class_name: Zeros
            config: {}
          beta_regularizer: null
          center: true
          epsilon: 0.001
          gamma_constraint: null
          gamma_initializer:
            class_name: Ones
            config: {}
          gamma_regularizer: null
          momentum: 0.99
          moving_mean_initializer:
            class_name: Zeros
            config: {}
          moving_variance_initializer:
            class_name: Ones
            config: {}
          name: batch_normalization_1
          scale: true
          trainable: true
        inbound_nodes:
        - - - conv2d_1
            - 0
            - 0
            - {}
        name: batch_normalization_1
      - class_name: Activation
        config: {activation: relu, name: activation_1, trainable: true}
        inbound_nodes:
        - - - batch_normalization_1
            - 0
            - 0
            - {}
        name: activation_1
      - class_name: MaxPooling2D
        config:
          data_format: channels_last
          name: max_pooling2d_1
          padding: same
          pool_size: !!python/tuple [3, 3]
          strides: !!python/tuple [2, 2]
          trainable: true
        inbound_nodes:
        - - - activation_1
            - 0
            - 0
            - {}
        name: max_pooling2d_1
      - class_name: Conv2D
        config:
          activation: linear
          activity_regularizer: null
          bias_constraint: null
          bias_initializer:
            class_name: Zeros
            config: {}
          bias_regularizer: null
          data_format: channels_last
          dilation_rate: *id001
          filters: 64
          kernel_constraint: null
          kernel_initializer:
            class_name: VarianceScaling
            config: {distribution: normal, mode: fan_in, scale: 2.0, seed: null}
          kernel_regularizer:
            class_name: L1L2
            config: {l1: 0.0, l2: 9.999999747378752e-05}
          kernel_size: !!python/tuple [1, 1]
          name: conv2d_2
          padding: same
          strides: &id007 !!python/tuple [1, 1]
          trainable: true
          use_bias: true
        inbound_nodes:
        - - - max_pooling2d_1
            - 0
            - 0
            - {}
        name: conv2d_2
      - class_name: BatchNormalization
        config:
          axis: 3
          beta_constraint: null
          beta_initializer:
            class_name: Zeros
            config: {}
          beta_regularizer: null
          center: true
          epsilon: 0.001
          gamma_constraint: null
          gamma_initializer:
            class_name: Ones
            config: {}
          gamma_regularizer: null
          momentum: 0.99
          moving_mean_initializer:
            class_name: Zeros
            config: {}
          moving_variance_initializer:
            class_name: Ones
            config: {}
          name: batch_normalization_2
          scale: true
          trainable: true
        inbound_nodes:
        - - - conv2d_2
            - 0
            - 0
            - {}
        name: batch_normalization_2
      - class_name: Activation
        config: {activation: relu, name: activation_2, trainable: true}
        inbound_nodes:
        - - - batch_normalization_2
            - 0
            - 0
            - {}
        name: activation_2
      - class_name: Conv2D
        config:
          activation: linear
          activity_regularizer: null
          bias_constraint: null
          bias_initializer:
            class_name: Zeros
            config: {}
          bias_regularizer: null
          data_format: channels_last
          dilation_rate: *id001
          filters: 64
          kernel_constraint: null
          kernel_initializer:
            class_name: VarianceScaling
            config: {distribution: normal, mode: fan_in, scale: 2.0, seed: null}
          kernel_regularizer:
            class_name: L1L2
            config: {l1: 0.0, l2: 9.999999747378752e-05}
          kernel_size: &id008 !!python/tuple [3, 3]
          name: conv2d_3
          padding: same
          strides: &id005 !!python/tuple [1, 1]
          trainable: true
          use_bias: true
        inbound_nodes:
        - - - activation_2
            - 0
            - 0
            - {}
        name: conv2d_3
      - class_name: BatchNormalization
        config:
          axis: 3
          beta_constraint: null
          beta_initializer:
            class_name: Zeros
            config: {}
          beta_regularizer: null
          center: true
          epsilon: 0.001
          gamma_constraint: null
          gamma_initializer:
            class_name: Ones
            config: {}
          gamma_regularizer: null
          momentum: 0.99
          moving_mean_initializer:
            class_name: Zeros
            config: {}
          moving_variance_initializer:
            class_name: Ones
            config: {}
          name: batch_normalization_3
          scale: true
          trainable: true
        inbound_nodes:
        - - - conv2d_3
            - 0
            - 0
            - {}
        name: batch_normalization_3
      - class_name: Activation
        config: {activation: relu, name: activation_3, trainable: true}
        inbound_nodes:
        - - - batch_normalization_3
            - 0
            - 0
            - {}
        name: activation_3
      - class_name: Conv2D
        config:
          activation: linear
          activity_regularizer: null
          bias_constraint: null
          bias_initializer:
            class_name: Zeros
            config: {}
          bias_regularizer: null
          data_format: channels_last
          dilation_rate: *id001
          filters: 256
          kernel_constraint: null
          kernel_initializer:
            class_name: VarianceScaling
            config: {distribution: normal, mode: fan_in, scale: 2.0, seed: null}
          kernel_regularizer:
            class_name: L1L2
            config: {l1: 0.0, l2: 9.999999747378752e-05}
          kernel_size: &id013 !!python/tuple [1, 1]
          name: conv2d_5
          padding: valid
          strides: !!python/tuple [1, 1]
          trainable: true
          use_bias: true
        inbound_nodes:
        - - - max_pooling2d_1
            - 0
            - 0
            - {}
        name: conv2d_5
      - class_name: Conv2D
        config:
          activation: linear
          activity_regularizer: null
          bias_constraint: null
          bias_initializer:
            class_name: Zeros
            config: {}
          bias_regularizer: null
          data_format: channels_last
          dilation_rate: *id001
          filters: 256
          kernel_constraint: null
          kernel_initializer:
            class_name: VarianceScaling
            config: {distribution: normal, mode: fan_in, scale: 2.0, seed: null}
          kernel_regularizer:
            class_name: L1L2
            config: {l1: 0.0, l2: 9.999999747378752e-05}
          kernel_size: &id009 !!python/tuple [1, 1]
          name: conv2d_4
          padding: same
          strides: *id005
          trainable: true
          use_bias: true
        inbound_nodes:
        - - - activation_3
            - 0
            - 0
            - {}
        name: conv2d_4
      - class_name: Add
        config: {name: add_1, trainable: true}
        inbound_nodes:
        - - - conv2d_5
            - 0
            - 0
            - &id006 {}
          - - conv2d_4
            - 0
            - 0
            - *id006
        name: add_1
      - class_name: BatchNormalization
        config:
          axis: 3
          beta_constraint: null
          beta_initializer:
            class_name: Zeros
            config: {}
          beta_regularizer: null
          center: true
          epsilon: 0.001
          gamma_constraint: null
          gamma_initializer:
            class_name: Ones
            config: {}
          gamma_regularizer: null
          momentum: 0.99
          moving_mean_initializer:
            class_name: Zeros
            config: {}
          moving_variance_initializer:
            class_name: Ones
            config: {}
          name: batch_normalization_4
          scale: true
          trainable: true
        inbound_nodes:
        - - - add_1
            - 0
            - 0
            - {}
        name: batch_normalization_4
      - class_name: Activation
        config: {activation: relu, name: activation_4, trainable: true}
        inbound_nodes:
        - - - batch_normalization_4
            - 0
            - 0
            - {}
        name: activation_4
      - class_name: Conv2D
        config:
          activation: linear
          activity_regularizer: null
          bias_constraint: null
          bias_initializer:
            class_name: Zeros
            config: {}
          bias_regularizer: null
          data_format: channels_last
          dilation_rate: *id001
          filters: 64
          kernel_constraint: null
          kernel_initializer:
            class_name: VarianceScaling
            config: {distribution: normal, mode: fan_in, scale: 2.0, seed: null}
          kernel_regularizer:
            class_name: L1L2
            config: {l1: 0.0, l2: 9.999999747378752e-05}
          kernel_size: &id011 !!python/tuple [1, 1]
          name: conv2d_6
          padding: same
          strides: *id007
          trainable: true
          use_bias: true
        inbound_nodes:
        - - - activation_4
            - 0
            - 0
            - {}
        name: conv2d_6
      - class_name: BatchNormalization
        config:
          axis: 3
          beta_constraint: null
          beta_initializer:
            class_name: Zeros
            config: {}
          beta_regularizer: null
          center: true
          epsilon: 0.001
          gamma_constraint: null
          gamma_initializer:
            class_name: Ones
            config: {}
          gamma_regularizer: null
          momentum: 0.99
          moving_mean_initializer:
            class_name: Zeros
            config: {}
          moving_variance_initializer:
            class_name: Ones
            config: {}
          name: batch_normalization_5
          scale: true
          trainable: true
        inbound_nodes:
        - - - conv2d_6
            - 0
            - 0
            - {}
        name: batch_normalization_5
      - class_name: Activation
        config: {activation: relu, name: activation_5, trainable: true}
        inbound_nodes:
        - - - batch_normalization_5
            - 0
            - 0
            - {}
        name: activation_5
      - class_name: Conv2D
        config:
          activation: linear
          activity_regularizer: null
          bias_constraint: null
          bias_initializer:
            class_name: Zeros
            config: {}
          bias_regularizer: null
          data_format: channels_last
          dilation_rate: *id001
          filters: 64
          kernel_constraint: null
          kernel_initializer:
            class_name: VarianceScaling
            config: {distribution: normal, mode: fan_in, scale: 2.0, seed: null}
          kernel_regularizer:
            class_name: L1L2
            config: {l1: 0.0, l2: 9.999999747378752e-05}
          kernel_size: *id008
          name: conv2d_7
          padding: same
          strides: *id005
          trainable: true
          use_bias: true
        inbound_nodes:
        - - - activation_5
            - 0
            - 0
            - {}
        name: conv2d_7
      - class_name: BatchNormalization
        config:
          axis: 3
          beta_constraint: null
          beta_initializer:
            class_name: Zeros
            config: {}
          beta_regularizer: null
          center: true
          epsilon: 0.001
          gamma_constraint: null
          gamma_initializer:
            class_name: Ones
            config: {}
          gamma_regularizer: null
          momentum: 0.99
          moving_mean_initializer:
            class_name: Zeros
            config: {}
          moving_variance_initializer:
            class_name: Ones
            config: {}
          name: batch_normalization_6
          scale: true
          trainable: true
        inbound_nodes:
        - - - conv2d_7
            - 0
            - 0
            - {}
        name: batch_normalization_6
      - class_name: Activation
        config: {activation: relu, name: activation_6, trainable: true}
        inbound_nodes:
        - - - batch_normalization_6
            - 0
            - 0
            - {}
        name: activation_6
      - class_name: Conv2D
        config:
          activation: linear
          activity_regularizer: null
          bias_constraint: null
          bias_initializer:
            class_name: Zeros
            config: {}
          bias_regularizer: null
          data_format: channels_last
          dilation_rate: *id001
          filters: 256
          kernel_constraint: null
          kernel_initializer:
            class_name: VarianceScaling
            config: {distribution: normal, mode: fan_in, scale: 2.0, seed: null}
          kernel_regularizer:
            class_name: L1L2
            config: {l1: 0.0, l2: 9.999999747378752e-05}
          kernel_size: *id009
          name: conv2d_8
          padding: same
          strides: *id005
          trainable: true
          use_bias: true
        inbound_nodes:
        - - - activation_6
            - 0
            - 0
            - {}
        name: conv2d_8
      - class_name: Add
        config: {name: add_2, trainable: true}
        inbound_nodes:
        - - - add_1
            - 0
            - 0
            - &id010 {}
          - - conv2d_8
            - 0
            - 0
            - *id010
        name: add_2
      - class_name: BatchNormalization
        config:
          axis: 3
          beta_constraint: null
          beta_initializer:
            class_name: Zeros
            config: {}
          beta_regularizer: null
          center: true
          epsilon: 0.001
          gamma_constraint: null
          gamma_initializer:
            class_name: Ones
            config: {}
          gamma_regularizer: null
          momentum: 0.99
          moving_mean_initializer:
            class_name: Zeros
            config: {}
          moving_variance_initializer:
            class_name: Ones
            config: {}
          name: batch_normalization_7
          scale: true
          trainable: true
        inbound_nodes:
        - - - add_2
            - 0
            - 0
            - {}
        name: batch_normalization_7
      - class_name: Activation
        config: {activation: relu, name: activation_7, trainable: true}
        inbound_nodes:
        - - - batch_normalization_7
            - 0
            - 0
            - {}
        name: activation_7
      - class_name: Conv2D
        config:
          activation: linear
          activity_regularizer: null
          bias_constraint: null
          bias_initializer:
            class_name: Zeros
            config: {}
          bias_regularizer: null
          data_format: channels_last
          dilation_rate: *id001
          filters: 64
          kernel_constraint: null
          kernel_initializer:
            class_name: VarianceScaling
            config: {distribution: normal, mode: fan_in, scale: 2.0, seed: null}
          kernel_regularizer:
            class_name: L1L2
            config: {l1: 0.0, l2: 9.999999747378752e-05}
          kernel_size: *id011
          name: conv2d_9
          padding: same
          strides: *id007
          trainable: true
          use_bias: true
        inbound_nodes:
        - - - activation_7
            - 0
            - 0
            - {}
        name: conv2d_9
      - class_name: BatchNormalization
        config:
          axis: 3
          beta_constraint: null
          beta_initializer:
            class_name: Zeros
            config: {}
          beta_regularizer: null
          center: true
          epsilon: 0.001
          gamma_constraint: null
          gamma_initializer:
            class_name: Ones
            config: {}
          gamma_regularizer: null
          momentum: 0.99
          moving_mean_initializer:
            class_name: Zeros
            config: {}
          moving_variance_initializer:
            class_name: Ones
            config: {}
          name: batch_normalization_8
          scale: true
          trainable: true
        inbound_nodes:
        - - - conv2d_9
            - 0
            - 0
            - {}
        name: batch_normalization_8
      - class_name: Activation
        config: {activation: relu, name: activation_8, trainable: true}
        inbound_nodes:
        - - - batch_normalization_8
            - 0
            - 0
            - {}
        name: activation_8
      - class_name: Conv2D
        config:
          activation: linear
          activity_regularizer: null
          bias_constraint: null
          bias_initializer:
            class_name: Zeros
            config: {}
          bias_regularizer: null
          data_format: channels_last
          dilation_rate: *id001
          filters: 64
          kernel_constraint: null
          kernel_initializer:
            class_name: VarianceScaling
            config: {distribution: normal, mode: fan_in, scale: 2.0, seed: null}
          kernel_regularizer:
            class_name: L1L2
            config: {l1: 0.0, l2: 9.999999747378752e-05}
          kernel_size: *id008
          name: conv2d_10
          padding: same
          strides: *id005
          trainable: true
          use_bias: true
        inbound_nodes:
        - - - activation_8
            - 0
            - 0
            - {}
        name: conv2d_10
      - class_name: BatchNormalization
        config:
          axis: 3
          beta_constraint: null
          beta_initializer:
            class_name: Zeros
            config: {}
          beta_regularizer: null
          center: true
          epsilon: 0.001
          gamma_constraint: null
          gamma_initializer:
            class_name: Ones
            config: {}
          gamma_regularizer: null
          momentum: 0.99
          moving_mean_initializer:
            class_name: Zeros
            config: {}
          moving_variance_initializer:
            class_name: Ones
            config: {}
          name: batch_normalization_9
          scale: true
          trainable: true
        inbound_nodes:
        - - - conv2d_10
            - 0
            - 0
            - {}
        name: batch_normalization_9
      - class_name: Activation
        config: {activation: relu, name: activation_9, trainable: true}
        inbound_nodes:
        - - - batch_normalization_9
            - 0
            - 0
            - {}
        name: activation_9
      - class_name: Conv2D
        config:
          activation: linear
          activity_regularizer: null
          bias_constraint: null
          bias_initializer:
            class_name: Zeros
            config: {}
          bias_regularizer: null
          data_format: channels_last
          dilation_rate: *id001
          filters: 256
          kernel_constraint: null
          kernel_initializer:
            class_name: VarianceScaling
            config: {distribution: normal, mode: fan_in, scale: 2.0, seed: null}
          kernel_regularizer:
            class_name: L1L2
            config: {l1: 0.0, l2: 9.999999747378752e-05}
          kernel_size: *id009
          name: conv2d_11
          padding: same
          strides: *id005
          trainable: true
          use_bias: true
        inbound_nodes:
        - - - activation_9
            - 0
            - 0
            - {}
        name: conv2d_11
      - class_name: Add
        config: {name: add_3, trainable: true}
        inbound_nodes:
        - - - add_2
            - 0
            - 0
            - &id012 {}
          - - conv2d_11
            - 0
            - 0
            - *id012
        name: add_3
      - class_name: BatchNormalization
        config:
          axis: 3
          beta_constraint: null
          beta_initializer:
            class_name: Zeros
            config: {}
          beta_regularizer: null
          center: true
          epsilon: 0.001
          gamma_constraint: null
          gamma_initializer:
            class_name: Ones
            config: {}
          gamma_regularizer: null
          momentum: 0.99
          moving_mean_initializer:
            class_name: Zeros
            config: {}
          moving_variance_initializer:
            class_name: Ones
            config: {}
          name: batch_normalization_10
          scale: true
          trainable: true
        inbound_nodes:
        - - - add_3
            - 0
            - 0
            - {}
        name: batch_normalization_10
      - class_name: Activation
        config: {activation: relu, name: activation_10, trainable: true}
        inbound_nodes:
        - - - batch_normalization_10
            - 0
            - 0
            - {}
        name: activation_10
      - class_name: Conv2D
        config:
          activation: linear
          activity_regularizer: null
          bias_constraint: null
          bias_initializer:
            class_name: Zeros
            config: {}
          bias_regularizer: null
          data_format: channels_last
          dilation_rate: *id001
          filters: 128
          kernel_constraint: null
          kernel_initializer:
            class_name: VarianceScaling
            config: {distribution: normal, mode: fan_in, scale: 2.0, seed: null}
          kernel_regularizer:
            class_name: L1L2
            config: {l1: 0.0, l2: 9.999999747378752e-05}
          kernel_size: *id011
          name: conv2d_12
          padding: same
          strides: &id022 !!python/tuple [2, 2]
          trainable: true
          use_bias: true
        inbound_nodes:
        - - - activation_10
            - 0
            - 0
            - {}
        name: conv2d_12
      - class_name: BatchNormalization
        config:
          axis: 3
          beta_constraint: null
          beta_initializer:
            class_name: Zeros
            config: {}
          beta_regularizer: null
          center: true
          epsilon: 0.001
          gamma_constraint: null
          gamma_initializer:
            class_name: Ones
            config: {}
          gamma_regularizer: null
          momentum: 0.99
          moving_mean_initializer:
            class_name: Zeros
            config: {}
          moving_variance_initializer:
            class_name: Ones
            config: {}
          name: batch_normalization_11
          scale: true
          trainable: true
        inbound_nodes:
        - - - conv2d_12
            - 0
            - 0
            - {}
        name: batch_normalization_11
      - class_name: Activation
        config: {activation: relu, name: activation_11, trainable: true}
        inbound_nodes:
        - - - batch_normalization_11
            - 0
            - 0
            - {}
        name: activation_11
      - class_name: Conv2D
        config:
          activation: linear
          activity_regularizer: null
          bias_constraint: null
          bias_initializer:
            class_name: Zeros
            config: {}
          bias_regularizer: null
          data_format: channels_last
          dilation_rate: *id001
          filters: 128
          kernel_constraint: null
          kernel_initializer:
            class_name: VarianceScaling
            config: {distribution: normal, mode: fan_in, scale: 2.0, seed: null}
          kernel_regularizer:
            class_name: L1L2
            config: {l1: 0.0, l2: 9.999999747378752e-05}
          kernel_size: *id008
          name: conv2d_13
          padding: same
          strides: *id005
          trainable: true
          use_bias: true
        inbound_nodes:
        - - - activation_11
            - 0
            - 0
            - {}
        name: conv2d_13
      - class_name: BatchNormalization
        config:
          axis: 3
          beta_constraint: null
          beta_initializer:
            class_name: Zeros
            config: {}
          beta_regularizer: null
          center: true
          epsilon: 0.001
          gamma_constraint: null
          gamma_initializer:
            class_name: Ones
            config: {}
          gamma_regularizer: null
          momentum: 0.99
          moving_mean_initializer:
            class_name: Zeros
            config: {}
          moving_variance_initializer:
            class_name: Ones
            config: {}
          name: batch_normalization_12
          scale: true
          trainable: true
        inbound_nodes:
        - - - conv2d_13
            - 0
            - 0
            - {}
        name: batch_normalization_12
      - class_name: Activation
        config: {activation: relu, name: activation_12, trainable: true}
        inbound_nodes:
        - - - batch_normalization_12
            - 0
            - 0
            - {}
        name: activation_12
      - class_name: Conv2D
        config:
          activation: linear
          activity_regularizer: null
          bias_constraint: null
          bias_initializer:
            class_name: Zeros
            config: {}
          bias_regularizer: null
          data_format: channels_last
          dilation_rate: *id001
          filters: 512
          kernel_constraint: null
          kernel_initializer:
            class_name: VarianceScaling
            config: {distribution: normal, mode: fan_in, scale: 2.0, seed: null}
          kernel_regularizer:
            class_name: L1L2
            config: {l1: 0.0, l2: 9.999999747378752e-05}
          kernel_size: *id013
          name: conv2d_15
          padding: valid
          strides: !!python/tuple [2, 1]
          trainable: true
          use_bias: true
        inbound_nodes:
        - - - add_3
            - 0
            - 0
            - {}
        name: conv2d_15
      - class_name: Conv2D
        config:
          activation: linear
          activity_regularizer: null
          bias_constraint: null
          bias_initializer:
            class_name: Zeros
            config: {}
          bias_regularizer: null
          data_format: channels_last
          dilation_rate: *id001
          filters: 512
          kernel_constraint: null
          kernel_initializer:
            class_name: VarianceScaling
            config: {distribution: normal, mode: fan_in, scale: 2.0, seed: null}
          kernel_regularizer:
            class_name: L1L2
            config: {l1: 0.0, l2: 9.999999747378752e-05}
          kernel_size: *id009
          name: conv2d_14
          padding: same
          strides: *id005
          trainable: true
          use_bias: true
        inbound_nodes:
        - - - activation_12
            - 0
            - 0
            - {}
        name: conv2d_14
      - class_name: Add
        config: {name: add_4, trainable: true}
        inbound_nodes:
        - - - conv2d_15
            - 0
            - 0
            - &id014 {}
          - - conv2d_14
            - 0
            - 0
            - *id014
        name: add_4
      - class_name: BatchNormalization
        config:
          axis: 3
          beta_constraint: null
          beta_initializer:
            class_name: Zeros
            config: {}
          beta_regularizer: null
          center: true
          epsilon: 0.001
          gamma_constraint: null
          gamma_initializer:
            class_name: Ones
            config: {}
          gamma_regularizer: null
          momentum: 0.99
          moving_mean_initializer:
            class_name: Zeros
            config: {}
          moving_variance_initializer:
            class_name: Ones
            config: {}
          name: batch_normalization_13
          scale: true
          trainable: true
        inbound_nodes:
        - - - add_4
            - 0
            - 0
            - {}
        name: batch_normalization_13
      - class_name: Activation
        config: {activation: relu, name: activation_13, trainable: true}
        inbound_nodes:
        - - - batch_normalization_13
            - 0
            - 0
            - {}
        name: activation_13
      - class_name: Conv2D
        config:
          activation: linear
          activity_regularizer: null
          bias_constraint: null
          bias_initializer:
            class_name: Zeros
            config: {}
          bias_regularizer: null
          data_format: channels_last
          dilation_rate: *id001
          filters: 128
          kernel_constraint: null
          kernel_initializer:
            class_name: VarianceScaling
            config: {distribution: normal, mode: fan_in, scale: 2.0, seed: null}
          kernel_regularizer:
            class_name: L1L2
            config: {l1: 0.0, l2: 9.999999747378752e-05}
          kernel_size: *id011
          name: conv2d_16
          padding: same
          strides: *id007
          trainable: true
          use_bias: true
        inbound_nodes:
        - - - activation_13
            - 0
            - 0
            - {}
        name: conv2d_16
      - class_name: BatchNormalization
        config:
          axis: 3
          beta_constraint: null
          beta_initializer:
            class_name: Zeros
            config: {}
          beta_regularizer: null
          center: true
          epsilon: 0.001
          gamma_constraint: null
          gamma_initializer:
            class_name: Ones
            config: {}
          gamma_regularizer: null
          momentum: 0.99
          moving_mean_initializer:
            class_name: Zeros
            config: {}
          moving_variance_initializer:
            class_name: Ones
            config: {}
          name: batch_normalization_14
          scale: true
          trainable: true
        inbound_nodes:
        - - - conv2d_16
            - 0
            - 0
            - {}
        name: batch_normalization_14
      - class_name: Activation
        config: {activation: relu, name: activation_14, trainable: true}
        inbound_nodes:
        - - - batch_normalization_14
            - 0
            - 0
            - {}
        name: activation_14
      - class_name: Conv2D
        config:
          activation: linear
          activity_regularizer: null
          bias_constraint: null
          bias_initializer:
            class_name: Zeros
            config: {}
          bias_regularizer: null
          data_format: channels_last
          dilation_rate: *id001
          filters: 128
          kernel_constraint: null
          kernel_initializer:
            class_name: VarianceScaling
            config: {distribution: normal, mode: fan_in, scale: 2.0, seed: null}
          kernel_regularizer:
            class_name: L1L2
            config: {l1: 0.0, l2: 9.999999747378752e-05}
          kernel_size: *id008
          name: conv2d_17
          padding: same
          strides: *id005
          trainable: true
          use_bias: true
        inbound_nodes:
        - - - activation_14
            - 0
            - 0
            - {}
        name: conv2d_17
      - class_name: BatchNormalization
        config:
          axis: 3
          beta_constraint: null
          beta_initializer:
            class_name: Zeros
            config: {}
          beta_regularizer: null
          center: true
          epsilon: 0.001
          gamma_constraint: null
          gamma_initializer:
            class_name: Ones
            config: {}
          gamma_regularizer: null
          momentum: 0.99
          moving_mean_initializer:
            class_name: Zeros
            config: {}
          moving_variance_initializer:
            class_name: Ones
            config: {}
          name: batch_normalization_15
          scale: true
          trainable: true
        inbound_nodes:
        - - - conv2d_17
            - 0
            - 0
            - {}
        name: batch_normalization_15
      - class_name: Activation
        config: {activation: relu, name: activation_15, trainable: true}
        inbound_nodes:
        - - - batch_normalization_15
            - 0
            - 0
            - {}
        name: activation_15
      - class_name: Conv2D
        config:
          activation: linear
          activity_regularizer: null
          bias_constraint: null
          bias_initializer:
            class_name: Zeros
            config: {}
          bias_regularizer: null
          data_format: channels_last
          dilation_rate: *id001
          filters: 512
          kernel_constraint: null
          kernel_initializer:
            class_name: VarianceScaling
            config: {distribution: normal, mode: fan_in, scale: 2.0, seed: null}
          kernel_regularizer:
            class_name: L1L2
            config: {l1: 0.0, l2: 9.999999747378752e-05}
          kernel_size: *id009
          name: conv2d_18
          padding: same
          strides: *id005
          trainable: true
          use_bias: true
        inbound_nodes:
        - - - activation_15
            - 0
            - 0
            - {}
        name: conv2d_18
      - class_name: Add
        config: {name: add_5, trainable: true}
        inbound_nodes:
        - - - add_4
            - 0
            - 0
            - &id015 {}
          - - conv2d_18
            - 0
            - 0
            - *id015
        name: add_5
      - class_name: BatchNormalization
        config:
          axis: 3
          beta_constraint: null
          beta_initializer:
            class_name: Zeros
            config: {}
          beta_regularizer: null
          center: true
          epsilon: 0.001
          gamma_constraint: null
          gamma_initializer:
            class_name: Ones
            config: {}
          gamma_regularizer: null
          momentum: 0.99
          moving_mean_initializer:
            class_name: Zeros
            config: {}
          moving_variance_initializer:
            class_name: Ones
            config: {}
          name: batch_normalization_16
          scale: true
          trainable: true
        inbound_nodes:
        - - - add_5
            - 0
            - 0
            - {}
        name: batch_normalization_16
      - class_name: Activation
        config: {activation: relu, name: activation_16, trainable: true}
        inbound_nodes:
        - - - batch_normalization_16
            - 0
            - 0
            - {}
        name: activation_16
      - class_name: Conv2D
        config:
          activation: linear
          activity_regularizer: null
          bias_constraint: null
          bias_initializer:
            class_name: Zeros
            config: {}
          bias_regularizer: null
          data_format: channels_last
          dilation_rate: *id001
          filters: 128
          kernel_constraint: null
          kernel_initializer:
            class_name: VarianceScaling
            config: {distribution: normal, mode: fan_in, scale: 2.0, seed: null}
          kernel_regularizer:
            class_name: L1L2
            config: {l1: 0.0, l2: 9.999999747378752e-05}
          kernel_size: *id011
          name: conv2d_19
          padding: same
          strides: *id007
          trainable: true
          use_bias: true
        inbound_nodes:
        - - - activation_16
            - 0
            - 0
            - {}
        name: conv2d_19
      - class_name: BatchNormalization
        config:
          axis: 3
          beta_constraint: null
          beta_initializer:
            class_name: Zeros
            config: {}
          beta_regularizer: null
          center: true
          epsilon: 0.001
          gamma_constraint: null
          gamma_initializer:
            class_name: Ones
            config: {}
          gamma_regularizer: null
          momentum: 0.99
          moving_mean_initializer:
            class_name: Zeros
            config: {}
          moving_variance_initializer:
            class_name: Ones
            config: {}
          name: batch_normalization_17
          scale: true
          trainable: true
        inbound_nodes:
        - - - conv2d_19
            - 0
            - 0
            - {}
        name: batch_normalization_17
      - class_name: Activation
        config: {activation: relu, name: activation_17, trainable: true}
        inbound_nodes:
        - - - batch_normalization_17
            - 0
            - 0
            - {}
        name: activation_17
      - class_name: Conv2D
        config:
          activation: linear
          activity_regularizer: null
          bias_constraint: null
          bias_initializer:
            class_name: Zeros
            config: {}
          bias_regularizer: null
          data_format: channels_last
          dilation_rate: *id001
          filters: 128
          kernel_constraint: null
          kernel_initializer:
            class_name: VarianceScaling
            config: {distribution: normal, mode: fan_in, scale: 2.0, seed: null}
          kernel_regularizer:
            class_name: L1L2
            config: {l1: 0.0, l2: 9.999999747378752e-05}
          kernel_size: *id008
          name: conv2d_20
          padding: same
          strides: *id005
          trainable: true
          use_bias: true
        inbound_nodes:
        - - - activation_17
            - 0
            - 0
            - {}
        name: conv2d_20
      - class_name: BatchNormalization
        config:
          axis: 3
          beta_constraint: null
          beta_initializer:
            class_name: Zeros
            config: {}
          beta_regularizer: null
          center: true
          epsilon: 0.001
          gamma_constraint: null
          gamma_initializer:
            class_name: Ones
            config: {}
          gamma_regularizer: null
          momentum: 0.99
          moving_mean_initializer:
            class_name: Zeros
            config: {}
          moving_variance_initializer:
            class_name: Ones
            config: {}
          name: batch_normalization_18
          scale: true
          trainable: true
        inbound_nodes:
        - - - conv2d_20
            - 0
            - 0
            - {}
        name: batch_normalization_18
      - class_name: Activation
        config: {activation: relu, name: activation_18, trainable: true}
        inbound_nodes:
        - - - batch_normalization_18
            - 0
            - 0
            - {}
        name: activation_18
      - class_name: Conv2D
        config:
          activation: linear
          activity_regularizer: null
          bias_constraint: null
          bias_initializer:
            class_name: Zeros
            config: {}
          bias_regularizer: null
          data_format: channels_last
          dilation_rate: *id001
          filters: 512
          kernel_constraint: null
          kernel_initializer:
            class_name: VarianceScaling
            config: {distribution: normal, mode: fan_in, scale: 2.0, seed: null}
          kernel_regularizer:
            class_name: L1L2
            config: {l1: 0.0, l2: 9.999999747378752e-05}
          kernel_size: *id009
          name: conv2d_21
          padding: same
          strides: *id005
          trainable: true
          use_bias: true
        inbound_nodes:
        - - - activation_18
            - 0
            - 0
            - {}
        name: conv2d_21
      - class_name: Add
        config: {name: add_6, trainable: true}
        inbound_nodes:
        - - - add_5
            - 0
            - 0
            - &id016 {}
          - - conv2d_21
            - 0
            - 0
            - *id016
        name: add_6
      - class_name: BatchNormalization
        config:
          axis: 3
          beta_constraint: null
          beta_initializer:
            class_name: Zeros
            config: {}
          beta_regularizer: null
          center: true
          epsilon: 0.001
          gamma_constraint: null
          gamma_initializer:
            class_name: Ones
            config: {}
          gamma_regularizer: null
          momentum: 0.99
          moving_mean_initializer:
            class_name: Zeros
            config: {}
          moving_variance_initializer:
            class_name: Ones
            config: {}
          name: batch_normalization_19
          scale: true
          trainable: true
        inbound_nodes:
        - - - add_6
            - 0
            - 0
            - {}
        name: batch_normalization_19
      - class_name: Activation
        config: {activation: relu, name: activation_19, trainable: true}
        inbound_nodes:
        - - - batch_normalization_19
            - 0
            - 0
            - {}
        name: activation_19
      - class_name: Conv2D
        config:
          activation: linear
          activity_regularizer: null
          bias_constraint: null
          bias_initializer:
            class_name: Zeros
            config: {}
          bias_regularizer: null
          data_format: channels_last
          dilation_rate: *id001
          filters: 128
          kernel_constraint: null
          kernel_initializer:
            class_name: VarianceScaling
            config: {distribution: normal, mode: fan_in, scale: 2.0, seed: null}
          kernel_regularizer:
            class_name: L1L2
            config: {l1: 0.0, l2: 9.999999747378752e-05}
          kernel_size: *id011
          name: conv2d_22
          padding: same
          strides: *id007
          trainable: true
          use_bias: true
        inbound_nodes:
        - - - activation_19
            - 0
            - 0
            - {}
        name: conv2d_22
      - class_name: BatchNormalization
        config:
          axis: 3
          beta_constraint: null
          beta_initializer:
            class_name: Zeros
            config: {}
          beta_regularizer: null
          center: true
          epsilon: 0.001
          gamma_constraint: null
          gamma_initializer:
            class_name: Ones
            config: {}
          gamma_regularizer: null
          momentum: 0.99
          moving_mean_initializer:
            class_name: Zeros
            config: {}
          moving_variance_initializer:
            class_name: Ones
            config: {}
          name: batch_normalization_20
          scale: true
          trainable: true
        inbound_nodes:
        - - - conv2d_22
            - 0
            - 0
            - {}
        name: batch_normalization_20
      - class_name: Activation
        config: {activation: relu, name: activation_20, trainable: true}
        inbound_nodes:
        - - - batch_normalization_20
            - 0
            - 0
            - {}
        name: activation_20
      - class_name: Conv2D
        config:
          activation: linear
          activity_regularizer: null
          bias_constraint: null
          bias_initializer:
            class_name: Zeros
            config: {}
          bias_regularizer: null
          data_format: channels_last
          dilation_rate: *id001
          filters: 128
          kernel_constraint: null
          kernel_initializer:
            class_name: VarianceScaling
            config: {distribution: normal, mode: fan_in, scale: 2.0, seed: null}
          kernel_regularizer:
            class_name: L1L2
            config: {l1: 0.0, l2: 9.999999747378752e-05}
          kernel_size: *id008
          name: conv2d_23
          padding: same
          strides: *id005
          trainable: true
          use_bias: true
        inbound_nodes:
        - - - activation_20
            - 0
            - 0
            - {}
        name: conv2d_23
      - class_name: BatchNormalization
        config:
          axis: 3
          beta_constraint: null
          beta_initializer:
            class_name: Zeros
            config: {}
          beta_regularizer: null
          center: true
          epsilon: 0.001
          gamma_constraint: null
          gamma_initializer:
            class_name: Ones
            config: {}
          gamma_regularizer: null
          momentum: 0.99
          moving_mean_initializer:
            class_name: Zeros
            config: {}
          moving_variance_initializer:
            class_name: Ones
            config: {}
          name: batch_normalization_21
          scale: true
          trainable: true
        inbound_nodes:
        - - - conv2d_23
            - 0
            - 0
            - {}
        name: batch_normalization_21
      - class_name: Activation
        config: {activation: relu, name: activation_21, trainable: true}
        inbound_nodes:
        - - - batch_normalization_21
            - 0
            - 0
            - {}
        name: activation_21
      - class_name: Conv2D
        config:
          activation: linear
          activity_regularizer: null
          bias_constraint: null
          bias_initializer:
            class_name: Zeros
            config: {}
          bias_regularizer: null
          data_format: channels_last
          dilation_rate: *id001
          filters: 512
          kernel_constraint: null
          kernel_initializer:
            class_name: VarianceScaling
            config: {distribution: normal, mode: fan_in, scale: 2.0, seed: null}
          kernel_regularizer:
            class_name: L1L2
            config: {l1: 0.0, l2: 9.999999747378752e-05}
          kernel_size: *id009
          name: conv2d_24
          padding: same
          strides: *id005
          trainable: true
          use_bias: true
        inbound_nodes:
        - - - activation_21
            - 0
            - 0
            - {}
        name: conv2d_24
      - class_name: Add
        config: {name: add_7, trainable: true}
        inbound_nodes:
        - - - add_6
            - 0
            - 0
            - &id017 {}
          - - conv2d_24
            - 0
            - 0
            - *id017
        name: add_7
      - class_name: BatchNormalization
        config:
          axis: 3
          beta_constraint: null
          beta_initializer:
            class_name: Zeros
            config: {}
          beta_regularizer: null
          center: true
          epsilon: 0.001
          gamma_constraint: null
          gamma_initializer:
            class_name: Ones
            config: {}
          gamma_regularizer: null
          momentum: 0.99
          moving_mean_initializer:
            class_name: Zeros
            config: {}
          moving_variance_initializer:
            class_name: Ones
            config: {}
          name: batch_normalization_22
          scale: true
          trainable: true
        inbound_nodes:
        - - - add_7
            - 0
            - 0
            - {}
        name: batch_normalization_22
      - class_name: Activation
        config: {activation: relu, name: activation_22, trainable: true}
        inbound_nodes:
        - - - batch_normalization_22
            - 0
            - 0
            - {}
        name: activation_22
      - class_name: Conv2D
        config:
          activation: linear
          activity_regularizer: null
          bias_constraint: null
          bias_initializer:
            class_name: Zeros
            config: {}
          bias_regularizer: null
          data_format: channels_last
          dilation_rate: *id001
          filters: 128
          kernel_constraint: null
          kernel_initializer:
            class_name: VarianceScaling
            config: {distribution: normal, mode: fan_in, scale: 2.0, seed: null}
          kernel_regularizer:
            class_name: L1L2
            config: {l1: 0.0, l2: 9.999999747378752e-05}
          kernel_size: *id011
          name: conv2d_25
          padding: same
          strides: *id007
          trainable: true
          use_bias: true
        inbound_nodes:
        - - - activation_22
            - 0
            - 0
            - {}
        name: conv2d_25
      - class_name: BatchNormalization
        config:
          axis: 3
          beta_constraint: null
          beta_initializer:
            class_name: Zeros
            config: {}
          beta_regularizer: null
          center: true
          epsilon: 0.001
          gamma_constraint: null
          gamma_initializer:
            class_name: Ones
            config: {}
          gamma_regularizer: null
          momentum: 0.99
          moving_mean_initializer:
            class_name: Zeros
            config: {}
          moving_variance_initializer:
            class_name: Ones
            config: {}
          name: batch_normalization_23
          scale: true
          trainable: true
        inbound_nodes:
        - - - conv2d_25
            - 0
            - 0
            - {}
        name: batch_normalization_23
      - class_name: Activation
        config: {activation: relu, name: activation_23, trainable: true}
        inbound_nodes:
        - - - batch_normalization_23
            - 0
            - 0
            - {}
        name: activation_23
      - class_name: Conv2D
        config:
          activation: linear
          activity_regularizer: null
          bias_constraint: null
          bias_initializer:
            class_name: Zeros
            config: {}
          bias_regularizer: null
          data_format: channels_last
          dilation_rate: *id001
          filters: 128
          kernel_constraint: null
          kernel_initializer:
            class_name: VarianceScaling
            config: {distribution: normal, mode: fan_in, scale: 2.0, seed: null}
          kernel_regularizer:
            class_name: L1L2
            config: {l1: 0.0, l2: 9.999999747378752e-05}
          kernel_size: *id008
          name: conv2d_26
          padding: same
          strides: *id005
          trainable: true
          use_bias: true
        inbound_nodes:
        - - - activation_23
            - 0
            - 0
            - {}
        name: conv2d_26
      - class_name: BatchNormalization
        config:
          axis: 3
          beta_constraint: null
          beta_initializer:
            class_name: Zeros
            config: {}
          beta_regularizer: null
          center: true
          epsilon: 0.001
          gamma_constraint: null
          gamma_initializer:
            class_name: Ones
            config: {}
          gamma_regularizer: null
          momentum: 0.99
          moving_mean_initializer:
            class_name: Zeros
            config: {}
          moving_variance_initializer:
            class_name: Ones
            config: {}
          name: batch_normalization_24
          scale: true
          trainable: true
        inbound_nodes:
        - - - conv2d_26
            - 0
            - 0
            - {}
        name: batch_normalization_24
      - class_name: Activation
        config: {activation: relu, name: activation_24, trainable: true}
        inbound_nodes:
        - - - batch_normalization_24
            - 0
            - 0
            - {}
        name: activation_24
      - class_name: Conv2D
        config:
          activation: linear
          activity_regularizer: null
          bias_constraint: null
          bias_initializer:
            class_name: Zeros
            config: {}
          bias_regularizer: null
          data_format: channels_last
          dilation_rate: *id001
          filters: 512
          kernel_constraint: null
          kernel_initializer:
            class_name: VarianceScaling
            config: {distribution: normal, mode: fan_in, scale: 2.0, seed: null}
          kernel_regularizer:
            class_name: L1L2
            config: {l1: 0.0, l2: 9.999999747378752e-05}
          kernel_size: *id009
          name: conv2d_27
          padding: same
          strides: *id005
          trainable: true
          use_bias: true
        inbound_nodes:
        - - - activation_24
            - 0
            - 0
            - {}
        name: conv2d_27
      - class_name: Add
        config: {name: add_8, trainable: true}
        inbound_nodes:
        - - - add_7
            - 0
            - 0
            - &id018 {}
          - - conv2d_27
            - 0
            - 0
            - *id018
        name: add_8
      - class_name: BatchNormalization
        config:
          axis: 3
          beta_constraint: null
          beta_initializer:
            class_name: Zeros
            config: {}
          beta_regularizer: null
          center: true
          epsilon: 0.001
          gamma_constraint: null
          gamma_initializer:
            class_name: Ones
            config: {}
          gamma_regularizer: null
          momentum: 0.99
          moving_mean_initializer:
            class_name: Zeros
            config: {}
          moving_variance_initializer:
            class_name: Ones
            config: {}
          name: batch_normalization_25
          scale: true
          trainable: true
        inbound_nodes:
        - - - add_8
            - 0
            - 0
            - {}
        name: batch_normalization_25
      - class_name: Activation
        config: {activation: relu, name: activation_25, trainable: true}
        inbound_nodes:
        - - - batch_normalization_25
            - 0
            - 0
            - {}
        name: activation_25
      - class_name: Conv2D
        config:
          activation: linear
          activity_regularizer: null
          bias_constraint: null
          bias_initializer:
            class_name: Zeros
            config: {}
          bias_regularizer: null
          data_format: channels_last
          dilation_rate: *id001
          filters: 128
          kernel_constraint: null
          kernel_initializer:
            class_name: VarianceScaling
            config: {distribution: normal, mode: fan_in, scale: 2.0, seed: null}
          kernel_regularizer:
            class_name: L1L2
            config: {l1: 0.0, l2: 9.999999747378752e-05}
          kernel_size: *id011
          name: conv2d_28
          padding: same
          strides: *id007
          trainable: true
          use_bias: true
        inbound_nodes:
        - - - activation_25
            - 0
            - 0
            - {}
        name: conv2d_28
      - class_name: BatchNormalization
        config:
          axis: 3
          beta_constraint: null
          beta_initializer:
            class_name: Zeros
            config: {}
          beta_regularizer: null
          center: true
          epsilon: 0.001
          gamma_constraint: null
          gamma_initializer:
            class_name: Ones
            config: {}
          gamma_regularizer: null
          momentum: 0.99
          moving_mean_initializer:
            class_name: Zeros
            config: {}
          moving_variance_initializer:
            class_name: Ones
            config: {}
          name: batch_normalization_26
          scale: true
          trainable: true
        inbound_nodes:
        - - - conv2d_28
            - 0
            - 0
            - {}
        name: batch_normalization_26
      - class_name: Activation
        config: {activation: relu, name: activation_26, trainable: true}
        inbound_nodes:
        - - - batch_normalization_26
            - 0
            - 0
            - {}
        name: activation_26
      - class_name: Conv2D
        config:
          activation: linear
          activity_regularizer: null
          bias_constraint: null
          bias_initializer:
            class_name: Zeros
            config: {}
          bias_regularizer: null
          data_format: channels_last
          dilation_rate: *id001
          filters: 128
          kernel_constraint: null
          kernel_initializer:
            class_name: VarianceScaling
            config: {distribution: normal, mode: fan_in, scale: 2.0, seed: null}
          kernel_regularizer:
            class_name: L1L2
            config: {l1: 0.0, l2: 9.999999747378752e-05}
          kernel_size: *id008
          name: conv2d_29
          padding: same
          strides: *id005
          trainable: true
          use_bias: true
        inbound_nodes:
        - - - activation_26
            - 0
            - 0
            - {}
        name: conv2d_29
      - class_name: BatchNormalization
        config:
          axis: 3
          beta_constraint: null
          beta_initializer:
            class_name: Zeros
            config: {}
          beta_regularizer: null
          center: true
          epsilon: 0.001
          gamma_constraint: null
          gamma_initializer:
            class_name: Ones
            config: {}
          gamma_regularizer: null
          momentum: 0.99
          moving_mean_initializer:
            class_name: Zeros
            config: {}
          moving_variance_initializer:
            class_name: Ones
            config: {}
          name: batch_normalization_27
          scale: true
          trainable: true
        inbound_nodes:
        - - - conv2d_29
            - 0
            - 0
            - {}
        name: batch_normalization_27
      - class_name: Activation
        config: {activation: relu, name: activation_27, trainable: true}
        inbound_nodes:
        - - - batch_normalization_27
            - 0
            - 0
            - {}
        name: activation_27
      - class_name: Conv2D
        config:
          activation: linear
          activity_regularizer: null
          bias_constraint: null
          bias_initializer:
            class_name: Zeros
            config: {}
          bias_regularizer: null
          data_format: channels_last
          dilation_rate: *id001
          filters: 512
          kernel_constraint: null
          kernel_initializer:
            class_name: VarianceScaling
            config: {distribution: normal, mode: fan_in, scale: 2.0, seed: null}
          kernel_regularizer:
            class_name: L1L2
            config: {l1: 0.0, l2: 9.999999747378752e-05}
          kernel_size: *id009
          name: conv2d_30
          padding: same
          strides: *id005
          trainable: true
          use_bias: true
        inbound_nodes:
        - - - activation_27
            - 0
            - 0
            - {}
        name: conv2d_30
      - class_name: Add
        config: {name: add_9, trainable: true}
        inbound_nodes:
        - - - add_8
            - 0
            - 0
            - &id019 {}
          - - conv2d_30
            - 0
            - 0
            - *id019
        name: add_9
      - class_name: BatchNormalization
        config:
          axis: 3
          beta_constraint: null
          beta_initializer:
            class_name: Zeros
            config: {}
          beta_regularizer: null
          center: true
          epsilon: 0.001
          gamma_constraint: null
          gamma_initializer:
            class_name: Ones
            config: {}
          gamma_regularizer: null
          momentum: 0.99
          moving_mean_initializer:
            class_name: Zeros
            config: {}
          moving_variance_initializer:
            class_name: Ones
            config: {}
          name: batch_normalization_28
          scale: true
          trainable: true
        inbound_nodes:
        - - - add_9
            - 0
            - 0
            - {}
        name: batch_normalization_28
      - class_name: Activation
        config: {activation: relu, name: activation_28, trainable: true}
        inbound_nodes:
        - - - batch_normalization_28
            - 0
            - 0
            - {}
        name: activation_28
      - class_name: Conv2D
        config:
          activation: linear
          activity_regularizer: null
          bias_constraint: null
          bias_initializer:
            class_name: Zeros
            config: {}
          bias_regularizer: null
          data_format: channels_last
          dilation_rate: *id001
          filters: 128
          kernel_constraint: null
          kernel_initializer:
            class_name: VarianceScaling
            config: {distribution: normal, mode: fan_in, scale: 2.0, seed: null}
          kernel_regularizer:
            class_name: L1L2
            config: {l1: 0.0, l2: 9.999999747378752e-05}
          kernel_size: *id011
          name: conv2d_31
          padding: same
          strides: *id007
          trainable: true
          use_bias: true
        inbound_nodes:
        - - - activation_28
            - 0
            - 0
            - {}
        name: conv2d_31
      - class_name: BatchNormalization
        config:
          axis: 3
          beta_constraint: null
          beta_initializer:
            class_name: Zeros
            config: {}
          beta_regularizer: null
          center: true
          epsilon: 0.001
          gamma_constraint: null
          gamma_initializer:
            class_name: Ones
            config: {}
          gamma_regularizer: null
          momentum: 0.99
          moving_mean_initializer:
            class_name: Zeros
            config: {}
          moving_variance_initializer:
            class_name: Ones
            config: {}
          name: batch_normalization_29
          scale: true
          trainable: true
        inbound_nodes:
        - - - conv2d_31
            - 0
            - 0
            - {}
        name: batch_normalization_29
      - class_name: Activation
        config: {activation: relu, name: activation_29, trainable: true}
        inbound_nodes:
        - - - batch_normalization_29
            - 0
            - 0
            - {}
        name: activation_29
      - class_name: Conv2D
        config:
          activation: linear
          activity_regularizer: null
          bias_constraint: null
          bias_initializer:
            class_name: Zeros
            config: {}
          bias_regularizer: null
          data_format: channels_last
          dilation_rate: *id001
          filters: 128
          kernel_constraint: null
          kernel_initializer:
            class_name: VarianceScaling
            config: {distribution: normal, mode: fan_in, scale: 2.0, seed: null}
          kernel_regularizer:
            class_name: L1L2
            config: {l1: 0.0, l2: 9.999999747378752e-05}
          kernel_size: *id008
          name: conv2d_32
          padding: same
          strides: *id005
          trainable: true
          use_bias: true
        inbound_nodes:
        - - - activation_29
            - 0
            - 0
            - {}
        name: conv2d_32
      - class_name: BatchNormalization
        config:
          axis: 3
          beta_constraint: null
          beta_initializer:
            class_name: Zeros
            config: {}
          beta_regularizer: null
          center: true
          epsilon: 0.001
          gamma_constraint: null
          gamma_initializer:
            class_name: Ones
            config: {}
          gamma_regularizer: null
          momentum: 0.99
          moving_mean_initializer:
            class_name: Zeros
            config: {}
          moving_variance_initializer:
            class_name: Ones
            config: {}
          name: batch_normalization_30
          scale: true
          trainable: true
        inbound_nodes:
        - - - conv2d_32
            - 0
            - 0
            - {}
        name: batch_normalization_30
      - class_name: Activation
        config: {activation: relu, name: activation_30, trainable: true}
        inbound_nodes:
        - - - batch_normalization_30
            - 0
            - 0
            - {}
        name: activation_30
      - class_name: Conv2D
        config:
          activation: linear
          activity_regularizer: null
          bias_constraint: null
          bias_initializer:
            class_name: Zeros
            config: {}
          bias_regularizer: null
          data_format: channels_last
          dilation_rate: *id001
          filters: 512
          kernel_constraint: null
          kernel_initializer:
            class_name: VarianceScaling
            config: {distribution: normal, mode: fan_in, scale: 2.0, seed: null}
          kernel_regularizer:
            class_name: L1L2
            config: {l1: 0.0, l2: 9.999999747378752e-05}
          kernel_size: *id009
          name: conv2d_33
          padding: same
          strides: *id005
          trainable: true
          use_bias: true
        inbound_nodes:
        - - - activation_30
            - 0
            - 0
            - {}
        name: conv2d_33
      - class_name: Add
        config: {name: add_10, trainable: true}
        inbound_nodes:
        - - - add_9
            - 0
            - 0
            - &id020 {}
          - - conv2d_33
            - 0
            - 0
            - *id020
        name: add_10
      - class_name: BatchNormalization
        config:
          axis: 3
          beta_constraint: null
          beta_initializer:
            class_name: Zeros
            config: {}
          beta_regularizer: null
          center: true
          epsilon: 0.001
          gamma_constraint: null
          gamma_initializer:
            class_name: Ones
            config: {}
          gamma_regularizer: null
          momentum: 0.99
          moving_mean_initializer:
            class_name: Zeros
            config: {}
          moving_variance_initializer:
            class_name: Ones
            config: {}
          name: batch_normalization_31
          scale: true
          trainable: true
        inbound_nodes:
        - - - add_10
            - 0
            - 0
            - {}
        name: batch_normalization_31
      - class_name: Activation
        config: {activation: relu, name: activation_31, trainable: true}
        inbound_nodes:
        - - - batch_normalization_31
            - 0
            - 0
            - {}
        name: activation_31
      - class_name: Conv2D
        config:
          activation: linear
          activity_regularizer: null
          bias_constraint: null
          bias_initializer:
            class_name: Zeros
            config: {}
          bias_regularizer: null
          data_format: channels_last
          dilation_rate: *id001
          filters: 128
          kernel_constraint: null
          kernel_initializer:
            class_name: VarianceScaling
            config: {distribution: normal, mode: fan_in, scale: 2.0, seed: null}
          kernel_regularizer:
            class_name: L1L2
            config: {l1: 0.0, l2: 9.999999747378752e-05}
          kernel_size: *id011
          name: conv2d_34
          padding: same
          strides: *id007
          trainable: true
          use_bias: true
        inbound_nodes:
        - - - activation_31
            - 0
            - 0
            - {}
        name: conv2d_34
      - class_name: BatchNormalization
        config:
          axis: 3
          beta_constraint: null
          beta_initializer:
            class_name: Zeros
            config: {}
          beta_regularizer: null
          center: true
          epsilon: 0.001
          gamma_constraint: null
          gamma_initializer:
            class_name: Ones
            config: {}
          gamma_regularizer: null
          momentum: 0.99
          moving_mean_initializer:
            class_name: Zeros
            config: {}
          moving_variance_initializer:
            class_name: Ones
            config: {}
          name: batch_normalization_32
          scale: true
          trainable: true
        inbound_nodes:
        - - - conv2d_34
            - 0
            - 0
            - {}
        name: batch_normalization_32
      - class_name: Activation
        config: {activation: relu, name: activation_32, trainable: true}
        inbound_nodes:
        - - - batch_normalization_32
            - 0
            - 0
            - {}
        name: activation_32
      - class_name: Conv2D
        config:
          activation: linear
          activity_regularizer: null
          bias_constraint: null
          bias_initializer:
            class_name: Zeros
            config: {}
          bias_regularizer: null
          data_format: channels_last
          dilation_rate: *id001
          filters: 128
          kernel_constraint: null
          kernel_initializer:
            class_name: VarianceScaling
            config: {distribution: normal, mode: fan_in, scale: 2.0, seed: null}
          kernel_regularizer:
            class_name: L1L2
            config: {l1: 0.0, l2: 9.999999747378752e-05}
          kernel_size: *id008
          name: conv2d_35
          padding: same
          strides: *id005
          trainable: true
          use_bias: true
        inbound_nodes:
        - - - activation_32
            - 0
            - 0
            - {}
        name: conv2d_35
      - class_name: BatchNormalization
        config:
          axis: 3
          beta_constraint: null
          beta_initializer:
            class_name: Zeros
            config: {}
          beta_regularizer: null
          center: true
          epsilon: 0.001
          gamma_constraint: null
          gamma_initializer:
            class_name: Ones
            config: {}
          gamma_regularizer: null
          momentum: 0.99
          moving_mean_initializer:
            class_name: Zeros
            config: {}
          moving_variance_initializer:
            class_name: Ones
            config: {}
          name: batch_normalization_33
          scale: true
          trainable: true
        inbound_nodes:
        - - - conv2d_35
            - 0
            - 0
            - {}
        name: batch_normalization_33
      - class_name: Activation
        config: {activation: relu, name: activation_33, trainable: true}
        inbound_nodes:
        - - - batch_normalization_33
            - 0
            - 0
            - {}
        name: activation_33
      - class_name: Conv2D
        config:
          activation: linear
          activity_regularizer: null
          bias_constraint: null
          bias_initializer:
            class_name: Zeros
            config: {}
          bias_regularizer: null
          data_format: channels_last
          dilation_rate: *id001
          filters: 512
          kernel_constraint: null
          kernel_initializer:
            class_name: VarianceScaling
            config: {distribution: normal, mode: fan_in, scale: 2.0, seed: null}
          kernel_regularizer:
            class_name: L1L2
            config: {l1: 0.0, l2: 9.999999747378752e-05}
          kernel_size: *id009
          name: conv2d_36
          padding: same
          strides: *id005
          trainable: true
          use_bias: true
        inbound_nodes:
        - - - activation_33
            - 0
            - 0
            - {}
        name: conv2d_36
      - class_name: Add
        config: {name: add_11, trainable: true}
        inbound_nodes:
        - - - add_10
            - 0
            - 0
            - &id021 {}
          - - conv2d_36
            - 0
            - 0
            - *id021
        name: add_11
      - class_name: BatchNormalization
        config:
          axis: 3
          beta_constraint: null
          beta_initializer:
            class_name: Zeros
            config: {}
          beta_regularizer: null
          center: true
          epsilon: 0.001
          gamma_constraint: null
          gamma_initializer:
            class_name: Ones
            config: {}
          gamma_regularizer: null
          momentum: 0.99
          moving_mean_initializer:
            class_name: Zeros
            config: {}
          moving_variance_initializer:
            class_name: Ones
            config: {}
          name: batch_normalization_34
          scale: true
          trainable: true
        inbound_nodes:
        - - - add_11
            - 0
            - 0
            - {}
        name: batch_normalization_34
      - class_name: Activation
        config: {activation: relu, name: activation_34, trainable: true}
        inbound_nodes:
        - - - batch_normalization_34
            - 0
            - 0
            - {}
        name: activation_34
      - class_name: Conv2D
        config:
          activation: linear
          activity_regularizer: null
          bias_constraint: null
          bias_initializer:
            class_name: Zeros
            config: {}
          bias_regularizer: null
          data_format: channels_last
          dilation_rate: *id001
          filters: 256
          kernel_constraint: null
          kernel_initializer:
            class_name: VarianceScaling
            config: {distribution: normal, mode: fan_in, scale: 2.0, seed: null}
          kernel_regularizer:
            class_name: L1L2
            config: {l1: 0.0, l2: 9.999999747378752e-05}
          kernel_size: *id011
          name: conv2d_37
          padding: same
          strides: *id022
          trainable: true
          use_bias: true
        inbound_nodes:
        - - - activation_34
            - 0
            - 0
            - {}
        name: conv2d_37
      - class_name: BatchNormalization
        config:
          axis: 3
          beta_constraint: null
          beta_initializer:
            class_name: Zeros
            config: {}
          beta_regularizer: null
          center: true
          epsilon: 0.001
          gamma_constraint: null
          gamma_initializer:
            class_name: Ones
            config: {}
          gamma_regularizer: null
          momentum: 0.99
          moving_mean_initializer:
            class_name: Zeros
            config: {}
          moving_variance_initializer:
            class_name: Ones
            config: {}
          name: batch_normalization_35
          scale: true
          trainable: true
        inbound_nodes:
        - - - conv2d_37
            - 0
            - 0
            - {}
        name: batch_normalization_35
      - class_name: Activation
        config: {activation: relu, name: activation_35, trainable: true}
        inbound_nodes:
        - - - batch_normalization_35
            - 0
            - 0
            - {}
        name: activation_35
      - class_name: Conv2D
        config:
          activation: linear
          activity_regularizer: null
          bias_constraint: null
          bias_initializer:
            class_name: Zeros
            config: {}
          bias_regularizer: null
          data_format: channels_last
          dilation_rate: *id001
          filters: 256
          kernel_constraint: null
          kernel_initializer:
            class_name: VarianceScaling
            config: {distribution: normal, mode: fan_in, scale: 2.0, seed: null}
          kernel_regularizer:
            class_name: L1L2
            config: {l1: 0.0, l2: 9.999999747378752e-05}
          kernel_size: *id008
          name: conv2d_38
          padding: same
          strides: *id005
          trainable: true
          use_bias: true
        inbound_nodes:
        - - - activation_35
            - 0
            - 0
            - {}
        name: conv2d_38
      - class_name: BatchNormalization
        config:
          axis: 3
          beta_constraint: null
          beta_initializer:
            class_name: Zeros
            config: {}
          beta_regularizer: null
          center: true
          epsilon: 0.001
          gamma_constraint: null
          gamma_initializer:
            class_name: Ones
            config: {}
          gamma_regularizer: null
          momentum: 0.99
          moving_mean_initializer:
            class_name: Zeros
            config: {}
          moving_variance_initializer:
            class_name: Ones
            config: {}
          name: batch_normalization_36
          scale: true
          trainable: true
        inbound_nodes:
        - - - conv2d_38
            - 0
            - 0
            - {}
        name: batch_normalization_36
      - class_name: Activation
        config: {activation: relu, name: activation_36, trainable: true}
        inbound_nodes:
        - - - batch_normalization_36
            - 0
            - 0
            - {}
        name: activation_36
      - class_name: Conv2D
        config:
          activation: linear
          activity_regularizer: null
          bias_constraint: null
          bias_initializer:
            class_name: Zeros
            config: {}
          bias_regularizer: null
          data_format: channels_last
          dilation_rate: *id001
          filters: 1024
          kernel_constraint: null
          kernel_initializer:
            class_name: VarianceScaling
            config: {distribution: normal, mode: fan_in, scale: 2.0, seed: null}
          kernel_regularizer:
            class_name: L1L2
            config: {l1: 0.0, l2: 9.999999747378752e-05}
          kernel_size: *id013
          name: conv2d_40
          padding: valid
          strides: !!python/tuple [2, 1]
          trainable: true
          use_bias: true
        inbound_nodes:
        - - - add_11
            - 0
            - 0
            - {}
        name: conv2d_40
      - class_name: Conv2D
        config:
          activation: linear
          activity_regularizer: null
          bias_constraint: null
          bias_initializer:
            class_name: Zeros
            config: {}
          bias_regularizer: null
          data_format: channels_last
          dilation_rate: *id001
          filters: 1024
          kernel_constraint: null
          kernel_initializer:
            class_name: VarianceScaling
            config: {distribution: normal, mode: fan_in, scale: 2.0, seed: null}
          kernel_regularizer:
            class_name: L1L2
            config: {l1: 0.0, l2: 9.999999747378752e-05}
          kernel_size: *id009
          name: conv2d_39
          padding: same
          strides: *id005
          trainable: true
          use_bias: true
        inbound_nodes:
        - - - activation_36
            - 0
            - 0
            - {}
        name: conv2d_39
      - class_name: Add
        config: {name: add_12, trainable: true}
        inbound_nodes:
        - - - conv2d_40
            - 0
            - 0
            - &id023 {}
          - - conv2d_39
            - 0
            - 0
            - *id023
        name: add_12
      - class_name: BatchNormalization
        config:
          axis: 3
          beta_constraint: null
          beta_initializer:
            class_name: Zeros
            config: {}
          beta_regularizer: null
          center: true
          epsilon: 0.001
          gamma_constraint: null
          gamma_initializer:
            class_name: Ones
            config: {}
          gamma_regularizer: null
          momentum: 0.99
          moving_mean_initializer:
            class_name: Zeros
            config: {}
          moving_variance_initializer:
            class_name: Ones
            config: {}
          name: batch_normalization_37
          scale: true
          trainable: true
        inbound_nodes:
        - - - add_12
            - 0
            - 0
            - {}
        name: batch_normalization_37
      - class_name: Activation
        config: {activation: relu, name: activation_37, trainable: true}
        inbound_nodes:
        - - - batch_normalization_37
            - 0
            - 0
            - {}
        name: activation_37
      - class_name: Conv2D
        config:
          activation: linear
          activity_regularizer: null
          bias_constraint: null
          bias_initializer:
            class_name: Zeros
            config: {}
          bias_regularizer: null
          data_format: channels_last
          dilation_rate: *id001
          filters: 256
          kernel_constraint: null
          kernel_initializer:
            class_name: VarianceScaling
            config: {distribution: normal, mode: fan_in, scale: 2.0, seed: null}
          kernel_regularizer:
            class_name: L1L2
            config: {l1: 0.0, l2: 9.999999747378752e-05}
          kernel_size: *id011
          name: conv2d_41
          padding: same
          strides: *id007
          trainable: true
          use_bias: true
        inbound_nodes:
        - - - activation_37
            - 0
            - 0
            - {}
        name: conv2d_41
      - class_name: BatchNormalization
        config:
          axis: 3
          beta_constraint: null
          beta_initializer:
            class_name: Zeros
            config: {}
          beta_regularizer: null
          center: true
          epsilon: 0.001
          gamma_constraint: null
          gamma_initializer:
            class_name: Ones
            config: {}
          gamma_regularizer: null
          momentum: 0.99
          moving_mean_initializer:
            class_name: Zeros
            config: {}
          moving_variance_initializer:
            class_name: Ones
            config: {}
          name: batch_normalization_38
          scale: true
          trainable: true
        inbound_nodes:
        - - - conv2d_41
            - 0
            - 0
            - {}
        name: batch_normalization_38
      - class_name: Activation
        config: {activation: relu, name: activation_38, trainable: true}
        inbound_nodes:
        - - - batch_normalization_38
            - 0
            - 0
            - {}
        name: activation_38
      - class_name: Conv2D
        config:
          activation: linear
          activity_regularizer: null
          bias_constraint: null
          bias_initializer:
            class_name: Zeros
            config: {}
          bias_regularizer: null
          data_format: channels_last
          dilation_rate: *id001
          filters: 256
          kernel_constraint: null
          kernel_initializer:
            class_name: VarianceScaling
            config: {distribution: normal, mode: fan_in, scale: 2.0, seed: null}
          kernel_regularizer:
            class_name: L1L2
            config: {l1: 0.0, l2: 9.999999747378752e-05}
          kernel_size: *id008
          name: conv2d_42
          padding: same
          strides: *id005
          trainable: true
          use_bias: true
        inbound_nodes:
        - - - activation_38
            - 0
            - 0
            - {}
        name: conv2d_42
      - class_name: BatchNormalization
        config:
          axis: 3
          beta_constraint: null
          beta_initializer:
            class_name: Zeros
            config: {}
          beta_regularizer: null
          center: true
          epsilon: 0.001
          gamma_constraint: null
          gamma_initializer:
            class_name: Ones
            config: {}
          gamma_regularizer: null
          momentum: 0.99
          moving_mean_initializer:
            class_name: Zeros
            config: {}
          moving_variance_initializer:
            class_name: Ones
            config: {}
          name: batch_normalization_39
          scale: true
          trainable: true
        inbound_nodes:
        - - - conv2d_42
            - 0
            - 0
            - {}
        name: batch_normalization_39
      - class_name: Activation
        config: {activation: relu, name: activation_39, trainable: true}
        inbound_nodes:
        - - - batch_normalization_39
            - 0
            - 0
            - {}
        name: activation_39
      - class_name: Conv2D
        config:
          activation: linear
          activity_regularizer: null
          bias_constraint: null
          bias_initializer:
            class_name: Zeros
            config: {}
          bias_regularizer: null
          data_format: channels_last
          dilation_rate: *id001
          filters: 1024
          kernel_constraint: null
          kernel_initializer:
            class_name: VarianceScaling
            config: {distribution: normal, mode: fan_in, scale: 2.0, seed: null}
          kernel_regularizer:
            class_name: L1L2
            config: {l1: 0.0, l2: 9.999999747378752e-05}
          kernel_size: *id009
          name: conv2d_43
          padding: same
          strides: *id005
          trainable: true
          use_bias: true
        inbound_nodes:
        - - - activation_39
            - 0
            - 0
            - {}
        name: conv2d_43
      - class_name: Add
        config: {name: add_13, trainable: true}
        inbound_nodes:
        - - - add_12
            - 0
            - 0
            - &id024 {}
          - - conv2d_43
            - 0
            - 0
            - *id024
        name: add_13
      - class_name: BatchNormalization
        config:
          axis: 3
          beta_constraint: null
          beta_initializer:
            class_name: Zeros
            config: {}
          beta_regularizer: null
          center: true
          epsilon: 0.001
          gamma_constraint: null
          gamma_initializer:
            class_name: Ones
            config: {}
          gamma_regularizer: null
          momentum: 0.99
          moving_mean_initializer:
            class_name: Zeros
            config: {}
          moving_variance_initializer:
            class_name: Ones
            config: {}
          name: batch_normalization_40
          scale: true
          trainable: true
        inbound_nodes:
        - - - add_13
            - 0
            - 0
            - {}
        name: batch_normalization_40
      - class_name: Activation
        config: {activation: relu, name: activation_40, trainable: true}
        inbound_nodes:
        - - - batch_normalization_40
            - 0
            - 0
            - {}
        name: activation_40
      - class_name: Conv2D
        config:
          activation: linear
          activity_regularizer: null
          bias_constraint: null
          bias_initializer:
            class_name: Zeros
            config: {}
          bias_regularizer: null
          data_format: channels_last
          dilation_rate: *id001
          filters: 256
          kernel_constraint: null
          kernel_initializer:
            class_name: VarianceScaling
            config: {distribution: normal, mode: fan_in, scale: 2.0, seed: null}
          kernel_regularizer:
            class_name: L1L2
            config: {l1: 0.0, l2: 9.999999747378752e-05}
          kernel_size: *id011
          name: conv2d_44
          padding: same
          strides: *id007
          trainable: true
          use_bias: true
        inbound_nodes:
        - - - activation_40
            - 0
            - 0
            - {}
        name: conv2d_44
      - class_name: BatchNormalization
        config:
          axis: 3
          beta_constraint: null
          beta_initializer:
            class_name: Zeros
            config: {}
          beta_regularizer: null
          center: true
          epsilon: 0.001
          gamma_constraint: null
          gamma_initializer:
            class_name: Ones
            config: {}
          gamma_regularizer: null
          momentum: 0.99
          moving_mean_initializer:
            class_name: Zeros
            config: {}
          moving_variance_initializer:
            class_name: Ones
            config: {}
          name: batch_normalization_41
          scale: true
          trainable: true
        inbound_nodes:
        - - - conv2d_44
            - 0
            - 0
            - {}
        name: batch_normalization_41
      - class_name: Activation
        config: {activation: relu, name: activation_41, trainable: true}
        inbound_nodes:
        - - - batch_normalization_41
            - 0
            - 0
            - {}
        name: activation_41
      - class_name: Conv2D
        config:
          activation: linear
          activity_regularizer: null
          bias_constraint: null
          bias_initializer:
            class_name: Zeros
            config: {}
          bias_regularizer: null
          data_format: channels_last
          dilation_rate: *id001
          filters: 256
          kernel_constraint: null
          kernel_initializer:
            class_name: VarianceScaling
            config: {distribution: normal, mode: fan_in, scale: 2.0, seed: null}
          kernel_regularizer:
            class_name: L1L2
            config: {l1: 0.0, l2: 9.999999747378752e-05}
          kernel_size: *id008
          name: conv2d_45
          padding: same
          strides: *id005
          trainable: true
          use_bias: true
        inbound_nodes:
        - - - activation_41
            - 0
            - 0
            - {}
        name: conv2d_45
      - class_name: BatchNormalization
        config:
          axis: 3
          beta_constraint: null
          beta_initializer:
            class_name: Zeros
            config: {}
          beta_regularizer: null
          center: true
          epsilon: 0.001
          gamma_constraint: null
          gamma_initializer:
            class_name: Ones
            config: {}
          gamma_regularizer: null
          momentum: 0.99
          moving_mean_initializer:
            class_name: Zeros
            config: {}
          moving_variance_initializer:
            class_name: Ones
            config: {}
          name: batch_normalization_42
          scale: true
          trainable: true
        inbound_nodes:
        - - - conv2d_45
            - 0
            - 0
            - {}
        name: batch_normalization_42
      - class_name: Activation
        config: {activation: relu, name: activation_42, trainable: true}
        inbound_nodes:
        - - - batch_normalization_42
            - 0
            - 0
            - {}
        name: activation_42
      - class_name: Conv2D
        config:
          activation: linear
          activity_regularizer: null
          bias_constraint: null
          bias_initializer:
            class_name: Zeros
            config: {}
          bias_regularizer: null
          data_format: channels_last
          dilation_rate: *id001
          filters: 1024
          kernel_constraint: null
          kernel_initializer:
            class_name: VarianceScaling
            config: {distribution: normal, mode: fan_in, scale: 2.0, seed: null}
          kernel_regularizer:
            class_name: L1L2
            config: {l1: 0.0, l2: 9.999999747378752e-05}
          kernel_size: *id009
          name: conv2d_46
          padding: same
          strides: *id005
          trainable: true
          use_bias: true
        inbound_nodes:
        - - - activation_42
            - 0
            - 0
            - {}
        name: conv2d_46
      - class_name: Add
        config: {name: add_14, trainable: true}
        inbound_nodes:
        - - - add_13
            - 0
            - 0
            - &id025 {}
          - - conv2d_46
            - 0
            - 0
            - *id025
        name: add_14
      - class_name: BatchNormalization
        config:
          axis: 3
          beta_constraint: null
          beta_initializer:
            class_name: Zeros
            config: {}
          beta_regularizer: null
          center: true
          epsilon: 0.001
          gamma_constraint: null
          gamma_initializer:
            class_name: Ones
            config: {}
          gamma_regularizer: null
          momentum: 0.99
          moving_mean_initializer:
            class_name: Zeros
            config: {}
          moving_variance_initializer:
            class_name: Ones
            config: {}
          name: batch_normalization_43
          scale: true
          trainable: true
        inbound_nodes:
        - - - add_14
            - 0
            - 0
            - {}
        name: batch_normalization_43
      - class_name: Activation
        config: {activation: relu, name: activation_43, trainable: true}
        inbound_nodes:
        - - - batch_normalization_43
            - 0
            - 0
            - {}
        name: activation_43
      - class_name: Conv2D
        config:
          activation: linear
          activity_regularizer: null
          bias_constraint: null
          bias_initializer:
            class_name: Zeros
            config: {}
          bias_regularizer: null
          data_format: channels_last
          dilation_rate: *id001
          filters: 256
          kernel_constraint: null
          kernel_initializer:
            class_name: VarianceScaling
            config: {distribution: normal, mode: fan_in, scale: 2.0, seed: null}
          kernel_regularizer:
            class_name: L1L2
            config: {l1: 0.0, l2: 9.999999747378752e-05}
          kernel_size: *id011
          name: conv2d_47
          padding: same
          strides: *id007
          trainable: true
          use_bias: true
        inbound_nodes:
        - - - activation_43
            - 0
            - 0
            - {}
        name: conv2d_47
      - class_name: BatchNormalization
        config:
          axis: 3
          beta_constraint: null
          beta_initializer:
            class_name: Zeros
            config: {}
          beta_regularizer: null
          center: true
          epsilon: 0.001
          gamma_constraint: null
          gamma_initializer:
            class_name: Ones
            config: {}
          gamma_regularizer: null
          momentum: 0.99
          moving_mean_initializer:
            class_name: Zeros
            config: {}
          moving_variance_initializer:
            class_name: Ones
            config: {}
          name: batch_normalization_44
          scale: true
          trainable: true
        inbound_nodes:
        - - - conv2d_47
            - 0
            - 0
            - {}
        name: batch_normalization_44
      - class_name: Activation
        config: {activation: relu, name: activation_44, trainable: true}
        inbound_nodes:
        - - - batch_normalization_44
            - 0
            - 0
            - {}
        name: activation_44
      - class_name: Conv2D
        config:
          activation: linear
          activity_regularizer: null
          bias_constraint: null
          bias_initializer:
            class_name: Zeros
            config: {}
          bias_regularizer: null
          data_format: channels_last
          dilation_rate: *id001
          filters: 256
          kernel_constraint: null
          kernel_initializer:
            class_name: VarianceScaling
            config: {distribution: normal, mode: fan_in, scale: 2.0, seed: null}
          kernel_regularizer:
            class_name: L1L2
            config: {l1: 0.0, l2: 9.999999747378752e-05}
          kernel_size: *id008
          name: conv2d_48
          padding: same
          strides: *id005
          trainable: true
          use_bias: true
        inbound_nodes:
        - - - activation_44
            - 0
            - 0
            - {}
        name: conv2d_48
      - class_name: BatchNormalization
        config:
          axis: 3
          beta_constraint: null
          beta_initializer:
            class_name: Zeros
            config: {}
          beta_regularizer: null
          center: true
          epsilon: 0.001
          gamma_constraint: null
          gamma_initializer:
            class_name: Ones
            config: {}
          gamma_regularizer: null
          momentum: 0.99
          moving_mean_initializer:
            class_name: Zeros
            config: {}
          moving_variance_initializer:
            class_name: Ones
            config: {}
          name: batch_normalization_45
          scale: true
          trainable: true
        inbound_nodes:
        - - - conv2d_48
            - 0
            - 0
            - {}
        name: batch_normalization_45
      - class_name: Activation
        config: {activation: relu, name: activation_45, trainable: true}
        inbound_nodes:
        - - - batch_normalization_45
            - 0
            - 0
            - {}
        name: activation_45
      - class_name: Conv2D
        config:
          activation: linear
          activity_regularizer: null
          bias_constraint: null
          bias_initializer:
            class_name: Zeros
            config: {}
          bias_regularizer: null
          data_format: channels_last
          dilation_rate: *id001
          filters: 1024
          kernel_constraint: null
          kernel_initializer:
            class_name: VarianceScaling
            config: {distribution: normal, mode: fan_in, scale: 2.0, seed: null}
          kernel_regularizer:
            class_name: L1L2
            config: {l1: 0.0, l2: 9.999999747378752e-05}
          kernel_size: *id009
          name: conv2d_49
          padding: same
          strides: *id005
          trainable: true
          use_bias: true
        inbound_nodes:
        - - - activation_45
            - 0
            - 0
            - {}
        name: conv2d_49
      - class_name: Add
        config: {name: add_15, trainable: true}
        inbound_nodes:
        - - - add_14
            - 0
            - 0
            - &id026 {}
          - - conv2d_49
            - 0
            - 0
            - *id026
        name: add_15
      - class_name: BatchNormalization
        config:
          axis: 3
          beta_constraint: null
          beta_initializer:
            class_name: Zeros
            config: {}
          beta_regularizer: null
          center: true
          epsilon: 0.001
          gamma_constraint: null
          gamma_initializer:
            class_name: Ones
            config: {}
          gamma_regularizer: null
          momentum: 0.99
          moving_mean_initializer:
            class_name: Zeros
            config: {}
          moving_variance_initializer:
            class_name: Ones
            config: {}
          name: batch_normalization_46
          scale: true
          trainable: true
        inbound_nodes:
        - - - add_15
            - 0
            - 0
            - {}
        name: batch_normalization_46
      - class_name: Activation
        config: {activation: relu, name: activation_46, trainable: true}
        inbound_nodes:
        - - - batch_normalization_46
            - 0
            - 0
            - {}
        name: activation_46
      - class_name: Conv2D
        config:
          activation: linear
          activity_regularizer: null
          bias_constraint: null
          bias_initializer:
            class_name: Zeros
            config: {}
          bias_regularizer: null
          data_format: channels_last
          dilation_rate: *id001
          filters: 256
          kernel_constraint: null
          kernel_initializer:
            class_name: VarianceScaling
            config: {distribution: normal, mode: fan_in, scale: 2.0, seed: null}
          kernel_regularizer:
            class_name: L1L2
            config: {l1: 0.0, l2: 9.999999747378752e-05}
          kernel_size: *id011
          name: conv2d_50
          padding: same
          strides: *id007
          trainable: true
          use_bias: true
        inbound_nodes:
        - - - activation_46
            - 0
            - 0
            - {}
        name: conv2d_50
      - class_name: BatchNormalization
        config:
          axis: 3
          beta_constraint: null
          beta_initializer:
            class_name: Zeros
            config: {}
          beta_regularizer: null
          center: true
          epsilon: 0.001
          gamma_constraint: null
          gamma_initializer:
            class_name: Ones
            config: {}
          gamma_regularizer: null
          momentum: 0.99
          moving_mean_initializer:
            class_name: Zeros
            config: {}
          moving_variance_initializer:
            class_name: Ones
            config: {}
          name: batch_normalization_47
          scale: true
          trainable: true
        inbound_nodes:
        - - - conv2d_50
            - 0
            - 0
            - {}
        name: batch_normalization_47
      - class_name: Activation
        config: {activation: relu, name: activation_47, trainable: true}
        inbound_nodes:
        - - - batch_normalization_47
            - 0
            - 0
            - {}
        name: activation_47
      - class_name: Conv2D
        config:
          activation: linear
          activity_regularizer: null
          bias_constraint: null
          bias_initializer:
            class_name: Zeros
            config: {}
          bias_regularizer: null
          data_format: channels_last
          dilation_rate: *id001
          filters: 256
          kernel_constraint: null
          kernel_initializer:
            class_name: VarianceScaling
            config: {distribution: normal, mode: fan_in, scale: 2.0, seed: null}
          kernel_regularizer:
            class_name: L1L2
            config: {l1: 0.0, l2: 9.999999747378752e-05}
          kernel_size: *id008
          name: conv2d_51
          padding: same
          strides: *id005
          trainable: true
          use_bias: true
        inbound_nodes:
        - - - activation_47
            - 0
            - 0
            - {}
        name: conv2d_51
      - class_name: BatchNormalization
        config:
          axis: 3
          beta_constraint: null
          beta_initializer:
            class_name: Zeros
            config: {}
          beta_regularizer: null
          center: true
          epsilon: 0.001
          gamma_constraint: null
          gamma_initializer:
            class_name: Ones
            config: {}
          gamma_regularizer: null
          momentum: 0.99
          moving_mean_initializer:
            class_name: Zeros
            config: {}
          moving_variance_initializer:
            class_name: Ones
            config: {}
          name: batch_normalization_48
          scale: true
          trainable: true
        inbound_nodes:
        - - - conv2d_51
            - 0
            - 0
            - {}
        name: batch_normalization_48
      - class_name: Activation
        config: {activation: relu, name: activation_48, trainable: true}
        inbound_nodes:
        - - - batch_normalization_48
            - 0
            - 0
            - {}
        name: activation_48
      - class_name: Conv2D
        config:
          activation: linear
          activity_regularizer: null
          bias_constraint: null
          bias_initializer:
            class_name: Zeros
            config: {}
          bias_regularizer: null
          data_format: channels_last
          dilation_rate: *id001
          filters: 1024
          kernel_constraint: null
          kernel_initializer:
            class_name: VarianceScaling
            config: {distribution: normal, mode: fan_in, scale: 2.0, seed: null}
          kernel_regularizer:
            class_name: L1L2
            config: {l1: 0.0, l2: 9.999999747378752e-05}
          kernel_size: *id009
          name: conv2d_52
          padding: same
          strides: *id005
          trainable: true
          use_bias: true
        inbound_nodes:
        - - - activation_48
            - 0
            - 0
            - {}
        name: conv2d_52
      - class_name: Add
        config: {name: add_16, trainable: true}
        inbound_nodes:
        - - - add_15
            - 0
            - 0
            - &id027 {}
          - - conv2d_52
            - 0
            - 0
            - *id027
        name: add_16
      - class_name: BatchNormalization
        config:
          axis: 3
          beta_constraint: null
          beta_initializer:
            class_name: Zeros
            config: {}
          beta_regularizer: null
          center: true
          epsilon: 0.001
          gamma_constraint: null
          gamma_initializer:
            class_name: Ones
            config: {}
          gamma_regularizer: null
          momentum: 0.99
          moving_mean_initializer:
            class_name: Zeros
            config: {}
          moving_variance_initializer:
            class_name: Ones
            config: {}
          name: batch_normalization_49
          scale: true
          trainable: true
        inbound_nodes:
        - - - add_16
            - 0
            - 0
            - {}
        name: batch_normalization_49
      - class_name: Activation
        config: {activation: relu, name: activation_49, trainable: true}
        inbound_nodes:
        - - - batch_normalization_49
            - 0
            - 0
            - {}
        name: activation_49
      - class_name: Conv2D
        config:
          activation: linear
          activity_regularizer: null
          bias_constraint: null
          bias_initializer:
            class_name: Zeros
            config: {}
          bias_regularizer: null
          data_format: channels_last
          dilation_rate: *id001
          filters: 256
          kernel_constraint: null
          kernel_initializer:
            class_name: VarianceScaling
            config: {distribution: normal, mode: fan_in, scale: 2.0, seed: null}
          kernel_regularizer:
            class_name: L1L2
            config: {l1: 0.0, l2: 9.999999747378752e-05}
          kernel_size: *id011
          name: conv2d_53
          padding: same
          strides: *id007
          trainable: true
          use_bias: true
        inbound_nodes:
        - - - activation_49
            - 0
            - 0
            - {}
        name: conv2d_53
      - class_name: BatchNormalization
        config:
          axis: 3
          beta_constraint: null
          beta_initializer:
            class_name: Zeros
            config: {}
          beta_regularizer: null
          center: true
          epsilon: 0.001
          gamma_constraint: null
          gamma_initializer:
            class_name: Ones
            config: {}
          gamma_regularizer: null
          momentum: 0.99
          moving_mean_initializer:
            class_name: Zeros
            config: {}
          moving_variance_initializer:
            class_name: Ones
            config: {}
          name: batch_normalization_50
          scale: true
          trainable: true
        inbound_nodes:
        - - - conv2d_53
            - 0
            - 0
            - {}
        name: batch_normalization_50
      - class_name: Activation
        config: {activation: relu, name: activation_50, trainable: true}
        inbound_nodes:
        - - - batch_normalization_50
            - 0
            - 0
            - {}
        name: activation_50
      - class_name: Conv2D
        config:
          activation: linear
          activity_regularizer: null
          bias_constraint: null
          bias_initializer:
            class_name: Zeros
            config: {}
          bias_regularizer: null
          data_format: channels_last
          dilation_rate: *id001
          filters: 256
          kernel_constraint: null
          kernel_initializer:
            class_name: VarianceScaling
            config: {distribution: normal, mode: fan_in, scale: 2.0, seed: null}
          kernel_regularizer:
            class_name: L1L2
            config: {l1: 0.0, l2: 9.999999747378752e-05}
          kernel_size: *id008
          name: conv2d_54
          padding: same
          strides: *id005
          trainable: true
          use_bias: true
        inbound_nodes:
        - - - activation_50
            - 0
            - 0
            - {}
        name: conv2d_54
      - class_name: BatchNormalization
        config:
          axis: 3
          beta_constraint: null
          beta_initializer:
            class_name: Zeros
            config: {}
          beta_regularizer: null
          center: true
          epsilon: 0.001
          gamma_constraint: null
          gamma_initializer:
            class_name: Ones
            config: {}
          gamma_regularizer: null
          momentum: 0.99
          moving_mean_initializer:
            class_name: Zeros
            config: {}
          moving_variance_initializer:
            class_name: Ones
            config: {}
          name: batch_normalization_51
          scale: true
          trainable: true
        inbound_nodes:
        - - - conv2d_54
            - 0
            - 0
            - {}
        name: batch_normalization_51
      - class_name: Activation
        config: {activation: relu, name: activation_51, trainable: true}
        inbound_nodes:
        - - - batch_normalization_51
            - 0
            - 0
            - {}
        name: activation_51
      - class_name: Conv2D
        config:
          activation: linear
          activity_regularizer: null
          bias_constraint: null
          bias_initializer:
            class_name: Zeros
            config: {}
          bias_regularizer: null
          data_format: channels_last
          dilation_rate: *id001
          filters: 1024
          kernel_constraint: null
          kernel_initializer:
            class_name: VarianceScaling
            config: {distribution: normal, mode: fan_in, scale: 2.0, seed: null}
          kernel_regularizer:
            class_name: L1L2
            config: {l1: 0.0, l2: 9.999999747378752e-05}
          kernel_size: *id009
          name: conv2d_55
          padding: same
          strides: *id005
          trainable: true
          use_bias: true
        inbound_nodes:
        - - - activation_51
            - 0
            - 0
            - {}
        name: conv2d_55
      - class_name: Add
        config: {name: add_17, trainable: true}
        inbound_nodes:
        - - - add_16
            - 0
            - 0
            - &id028 {}
          - - conv2d_55
            - 0
            - 0
            - *id028
        name: add_17
      - class_name: BatchNormalization
        config:
          axis: 3
          beta_constraint: null
          beta_initializer:
            class_name: Zeros
            config: {}
          beta_regularizer: null
          center: true
          epsilon: 0.001
          gamma_constraint: null
          gamma_initializer:
            class_name: Ones
            config: {}
          gamma_regularizer: null
          momentum: 0.99
          moving_mean_initializer:
            class_name: Zeros
            config: {}
          moving_variance_initializer:
            class_name: Ones
            config: {}
          name: batch_normalization_52
          scale: true
          trainable: true
        inbound_nodes:
        - - - add_17
            - 0
            - 0
            - {}
        name: batch_normalization_52
      - class_name: Activation
        config: {activation: relu, name: activation_52, trainable: true}
        inbound_nodes:
        - - - batch_normalization_52
            - 0
            - 0
            - {}
        name: activation_52
      - class_name: Conv2D
        config:
          activation: linear
          activity_regularizer: null
          bias_constraint: null
          bias_initializer:
            class_name: Zeros
            config: {}
          bias_regularizer: null
          data_format: channels_last
          dilation_rate: *id001
          filters: 256
          kernel_constraint: null
          kernel_initializer:
            class_name: VarianceScaling
            config: {distribution: normal, mode: fan_in, scale: 2.0, seed: null}
          kernel_regularizer:
            class_name: L1L2
            config: {l1: 0.0, l2: 9.999999747378752e-05}
          kernel_size: *id011
          name: conv2d_56
          padding: same
          strides: *id007
          trainable: true
          use_bias: true
        inbound_nodes:
        - - - activation_52
            - 0
            - 0
            - {}
        name: conv2d_56
      - class_name: BatchNormalization
        config:
          axis: 3
          beta_constraint: null
          beta_initializer:
            class_name: Zeros
            config: {}
          beta_regularizer: null
          center: true
          epsilon: 0.001
          gamma_constraint: null
          gamma_initializer:
            class_name: Ones
            config: {}
          gamma_regularizer: null
          momentum: 0.99
          moving_mean_initializer:
            class_name: Zeros
            config: {}
          moving_variance_initializer:
            class_name: Ones
            config: {}
          name: batch_normalization_53
          scale: true
          trainable: true
        inbound_nodes:
        - - - conv2d_56
            - 0
            - 0
            - {}
        name: batch_normalization_53
      - class_name: Activation
        config: {activation: relu, name: activation_53, trainable: true}
        inbound_nodes:
        - - - batch_normalization_53
            - 0
            - 0
            - {}
        name: activation_53
      - class_name: Conv2D
        config:
          activation: linear
          activity_regularizer: null
          bias_constraint: null
          bias_initializer:
            class_name: Zeros
            config: {}
          bias_regularizer: null
          data_format: channels_last
          dilation_rate: *id001
          filters: 256
          kernel_constraint: null
          kernel_initializer:
            class_name: VarianceScaling
            config: {distribution: normal, mode: fan_in, scale: 2.0, seed: null}
          kernel_regularizer:
            class_name: L1L2
            config: {l1: 0.0, l2: 9.999999747378752e-05}
          kernel_size: *id008
          name: conv2d_57
          padding: same
          strides: *id005
          trainable: true
          use_bias: true
        inbound_nodes:
        - - - activation_53
            - 0
            - 0
            - {}
        name: conv2d_57
      - class_name: BatchNormalization
        config:
          axis: 3
          beta_constraint: null
          beta_initializer:
            class_name: Zeros
            config: {}
          beta_regularizer: null
          center: true
          epsilon: 0.001
          gamma_constraint: null
          gamma_initializer:
            class_name: Ones
            config: {}
          gamma_regularizer: null
          momentum: 0.99
          moving_mean_initializer:
            class_name: Zeros
            config: {}
          moving_variance_initializer:
            class_name: Ones
            config: {}
          name: batch_normalization_54
          scale: true
          trainable: true
        inbound_nodes:
        - - - conv2d_57
            - 0
            - 0
            - {}
        name: batch_normalization_54
      - class_name: Activation
        config: {activation: relu, name: activation_54, trainable: true}
        inbound_nodes:
        - - - batch_normalization_54
            - 0
            - 0
            - {}
        name: activation_54
      - class_name: Conv2D
        config:
          activation: linear
          activity_regularizer: null
          bias_constraint: null
          bias_initializer:
            class_name: Zeros
            config: {}
          bias_regularizer: null
          data_format: channels_last
          dilation_rate: *id001
          filters: 1024
          kernel_constraint: null
          kernel_initializer:
            class_name: VarianceScaling
            config: {distribution: normal, mode: fan_in, scale: 2.0, seed: null}
          kernel_regularizer:
            class_name: L1L2
            config: {l1: 0.0, l2: 9.999999747378752e-05}
          kernel_size: *id009
          name: conv2d_58
          padding: same
          strides: *id005
          trainable: true
          use_bias: true
        inbound_nodes:
        - - - activation_54
            - 0
            - 0
            - {}
        name: conv2d_58
      - class_name: Add
        config: {name: add_18, trainable: true}
        inbound_nodes:
        - - - add_17
            - 0
            - 0
            - &id029 {}
          - - conv2d_58
            - 0
            - 0
            - *id029
        name: add_18
      - class_name: BatchNormalization
        config:
          axis: 3
          beta_constraint: null
          beta_initializer:
            class_name: Zeros
            config: {}
          beta_regularizer: null
          center: true
          epsilon: 0.001
          gamma_constraint: null
          gamma_initializer:
            class_name: Ones
            config: {}
          gamma_regularizer: null
          momentum: 0.99
          moving_mean_initializer:
            class_name: Zeros
            config: {}
          moving_variance_initializer:
            class_name: Ones
            config: {}
          name: batch_normalization_55
          scale: true
          trainable: true
        inbound_nodes:
        - - - add_18
            - 0
            - 0
            - {}
        name: batch_normalization_55
      - class_name: Activation
        config: {activation: relu, name: activation_55, trainable: true}
        inbound_nodes:
        - - - batch_normalization_55
            - 0
            - 0
            - {}
        name: activation_55
      - class_name: Conv2D
        config:
          activation: linear
          activity_regularizer: null
          bias_constraint: null
          bias_initializer:
            class_name: Zeros
            config: {}
          bias_regularizer: null
          data_format: channels_last
          dilation_rate: *id001
          filters: 256
          kernel_constraint: null
          kernel_initializer:
            class_name: VarianceScaling
            config: {distribution: normal, mode: fan_in, scale: 2.0, seed: null}
          kernel_regularizer:
            class_name: L1L2
            config: {l1: 0.0, l2: 9.999999747378752e-05}
          kernel_size: *id011
          name: conv2d_59
          padding: same
          strides: *id007
          trainable: true
          use_bias: true
        inbound_nodes:
        - - - activation_55
            - 0
            - 0
            - {}
        name: conv2d_59
      - class_name: BatchNormalization
        config:
          axis: 3
          beta_constraint: null
          beta_initializer:
            class_name: Zeros
            config: {}
          beta_regularizer: null
          center: true
          epsilon: 0.001
          gamma_constraint: null
          gamma_initializer:
            class_name: Ones
            config: {}
          gamma_regularizer: null
          momentum: 0.99
          moving_mean_initializer:
            class_name: Zeros
            config: {}
          moving_variance_initializer:
            class_name: Ones
            config: {}
          name: batch_normalization_56
          scale: true
          trainable: true
        inbound_nodes:
        - - - conv2d_59
            - 0
            - 0
            - {}
        name: batch_normalization_56
      - class_name: Activation
        config: {activation: relu, name: activation_56, trainable: true}
        inbound_nodes:
        - - - batch_normalization_56
            - 0
            - 0
            - {}
        name: activation_56
      - class_name: Conv2D
        config:
          activation: linear
          activity_regularizer: null
          bias_constraint: null
          bias_initializer:
            class_name: Zeros
            config: {}
          bias_regularizer: null
          data_format: channels_last
          dilation_rate: *id001
          filters: 256
          kernel_constraint: null
          kernel_initializer:
            class_name: VarianceScaling
            config: {distribution: normal, mode: fan_in, scale: 2.0, seed: null}
          kernel_regularizer:
            class_name: L1L2
            config: {l1: 0.0, l2: 9.999999747378752e-05}
          kernel_size: *id008
          name: conv2d_60
          padding: same
          strides: *id005
          trainable: true
          use_bias: true
        inbound_nodes:
        - - - activation_56
            - 0
            - 0
            - {}
        name: conv2d_60
      - class_name: BatchNormalization
        config:
          axis: 3
          beta_constraint: null
          beta_initializer:
            class_name: Zeros
            config: {}
          beta_regularizer: null
          center: true
          epsilon: 0.001
          gamma_constraint: null
          gamma_initializer:
            class_name: Ones
            config: {}
          gamma_regularizer: null
          momentum: 0.99
          moving_mean_initializer:
            class_name: Zeros
            config: {}
          moving_variance_initializer:
            class_name: Ones
            config: {}
          name: batch_normalization_57
          scale: true
          trainable: true
        inbound_nodes:
        - - - conv2d_60
            - 0
            - 0
            - {}
        name: batch_normalization_57
      - class_name: Activation
        config: {activation: relu, name: activation_57, trainable: true}
        inbound_nodes:
        - - - batch_normalization_57
            - 0
            - 0
            - {}
        name: activation_57
      - class_name: Conv2D
        config:
          activation: linear
          activity_regularizer: null
          bias_constraint: null
          bias_initializer:
            class_name: Zeros
            config: {}
          bias_regularizer: null
          data_format: channels_last
          dilation_rate: *id001
          filters: 1024
          kernel_constraint: null
          kernel_initializer:
            class_name: VarianceScaling
            config: {distribution: normal, mode: fan_in, scale: 2.0, seed: null}
          kernel_regularizer:
            class_name: L1L2
            config: {l1: 0.0, l2: 9.999999747378752e-05}
          kernel_size: *id009
          name: conv2d_61
          padding: same
          strides: *id005
          trainable: true
          use_bias: true
        inbound_nodes:
        - - - activation_57
            - 0
            - 0
            - {}
        name: conv2d_61
      - class_name: Add
        config: {name: add_19, trainable: true}
        inbound_nodes:
        - - - add_18
            - 0
            - 0
            - &id030 {}
          - - conv2d_61
            - 0
            - 0
            - *id030
        name: add_19
      - class_name: BatchNormalization
        config:
          axis: 3
          beta_constraint: null
          beta_initializer:
            class_name: Zeros
            config: {}
          beta_regularizer: null
          center: true
          epsilon: 0.001
          gamma_constraint: null
          gamma_initializer:
            class_name: Ones
            config: {}
          gamma_regularizer: null
          momentum: 0.99
          moving_mean_initializer:
            class_name: Zeros
            config: {}
          moving_variance_initializer:
            class_name: Ones
            config: {}
          name: batch_normalization_58
          scale: true
          trainable: true
        inbound_nodes:
        - - - add_19
            - 0
            - 0
            - {}
        name: batch_normalization_58
      - class_name: Activation
        config: {activation: relu, name: activation_58, trainable: true}
        inbound_nodes:
        - - - batch_normalization_58
            - 0
            - 0
            - {}
        name: activation_58
      - class_name: Conv2D
        config:
          activation: linear
          activity_regularizer: null
          bias_constraint: null
          bias_initializer:
            class_name: Zeros
            config: {}
          bias_regularizer: null
          data_format: channels_last
          dilation_rate: *id001
          filters: 256
          kernel_constraint: null
          kernel_initializer:
            class_name: VarianceScaling
            config: {distribution: normal, mode: fan_in, scale: 2.0, seed: null}
          kernel_regularizer:
            class_name: L1L2
            config: {l1: 0.0, l2: 9.999999747378752e-05}
          kernel_size: *id011
          name: conv2d_62
          padding: same
          strides: *id007
          trainable: true
          use_bias: true
        inbound_nodes:
        - - - activation_58
            - 0
            - 0
            - {}
        name: conv2d_62
      - class_name: BatchNormalization
        config:
          axis: 3
          beta_constraint: null
          beta_initializer:
            class_name: Zeros
            config: {}
          beta_regularizer: null
          center: true
          epsilon: 0.001
          gamma_constraint: null
          gamma_initializer:
            class_name: Ones
            config: {}
          gamma_regularizer: null
          momentum: 0.99
          moving_mean_initializer:
            class_name: Zeros
            config: {}
          moving_variance_initializer:
            class_name: Ones
            config: {}
          name: batch_normalization_59
          scale: true
          trainable: true
        inbound_nodes:
        - - - conv2d_62
            - 0
            - 0
            - {}
        name: batch_normalization_59
      - class_name: Activation
        config: {activation: relu, name: activation_59, trainable: true}
        inbound_nodes:
        - - - batch_normalization_59
            - 0
            - 0
            - {}
        name: activation_59
      - class_name: Conv2D
        config:
          activation: linear
          activity_regularizer: null
          bias_constraint: null
          bias_initializer:
            class_name: Zeros
            config: {}
          bias_regularizer: null
          data_format: channels_last
          dilation_rate: *id001
          filters: 256
          kernel_constraint: null
          kernel_initializer:
            class_name: VarianceScaling
            config: {distribution: normal, mode: fan_in, scale: 2.0, seed: null}
          kernel_regularizer:
            class_name: L1L2
            config: {l1: 0.0, l2: 9.999999747378752e-05}
          kernel_size: *id008
          name: conv2d_63
          padding: same
          strides: *id005
          trainable: true
          use_bias: true
        inbound_nodes:
        - - - activation_59
            - 0
            - 0
            - {}
        name: conv2d_63
      - class_name: BatchNormalization
        config:
          axis: 3
          beta_constraint: null
          beta_initializer:
            class_name: Zeros
            config: {}
          beta_regularizer: null
          center: true
          epsilon: 0.001
          gamma_constraint: null
          gamma_initializer:
            class_name: Ones
            config: {}
          gamma_regularizer: null
          momentum: 0.99
          moving_mean_initializer:
            class_name: Zeros
            config: {}
          moving_variance_initializer:
            class_name: Ones
            config: {}
          name: batch_normalization_60
          scale: true
          trainable: true
        inbound_nodes:
        - - - conv2d_63
            - 0
            - 0
            - {}
        name: batch_normalization_60
      - class_name: Activation
        config: {activation: relu, name: activation_60, trainable: true}
        inbound_nodes:
        - - - batch_normalization_60
            - 0
            - 0
            - {}
        name: activation_60
      - class_name: Conv2D
        config:
          activation: linear
          activity_regularizer: null
          bias_constraint: null
          bias_initializer:
            class_name: Zeros
            config: {}
          bias_regularizer: null
          data_format: channels_last
          dilation_rate: *id001
          filters: 1024
          kernel_constraint: null
          kernel_initializer:
            class_name: VarianceScaling
            config: {distribution: normal, mode: fan_in, scale: 2.0, seed: null}
          kernel_regularizer:
            class_name: L1L2
            config: {l1: 0.0, l2: 9.999999747378752e-05}
          kernel_size: *id009
          name: conv2d_64
          padding: same
          strides: *id005
          trainable: true
          use_bias: true
        inbound_nodes:
        - - - activation_60
            - 0
            - 0
            - {}
        name: conv2d_64
      - class_name: Add
        config: {name: add_20, trainable: true}
        inbound_nodes:
        - - - add_19
            - 0
            - 0
            - &id031 {}
          - - conv2d_64
            - 0
            - 0
            - *id031
        name: add_20
      - class_name: BatchNormalization
        config:
          axis: 3
          beta_constraint: null
          beta_initializer:
            class_name: Zeros
            config: {}
          beta_regularizer: null
          center: true
          epsilon: 0.001
          gamma_constraint: null
          gamma_initializer:
            class_name: Ones
            config: {}
          gamma_regularizer: null
          momentum: 0.99
          moving_mean_initializer:
            class_name: Zeros
            config: {}
          moving_variance_initializer:
            class_name: Ones
            config: {}
          name: batch_normalization_61
          scale: true
          trainable: true
        inbound_nodes:
        - - - add_20
            - 0
            - 0
            - {}
        name: batch_normalization_61
      - class_name: Activation
        config: {activation: relu, name: activation_61, trainable: true}
        inbound_nodes:
        - - - batch_normalization_61
            - 0
            - 0
…
          trainable: true
        inbound_nodes:
        - - - conv2d_132
            - 0
            - 0
            - {}
        name: batch_normalization_129
      - class_name: Activation
        config: {activation: relu, name: activation_129, trainable: true}
        inbound_nodes:
        - - - batch_normalization_129
            - 0
            - 0
            - {}
        name: activation_129
      - class_name: Conv2D
        config:
          activation: linear
          activity_regularizer: null
          bias_constraint: null
          bias_initializer:
            class_name: Zeros
            config: {}
          bias_regularizer: null
          data_format: channels_last
          dilation_rate: *id001
          filters: 1024
          kernel_constraint: null
          kernel_initializer:
            class_name: VarianceScaling
            config: {distribution: normal, mode: fan_in, scale: 2.0, seed: null}
          kernel_regularizer:
            class_name: L1L2
            config: {l1: 0.0, l2: 9.999999747378752e-05}
          kernel_size: *id009
          name: conv2d_133
          padding: same
          strides: *id005
          trainable: true
          use_bias: true
        inbound_nodes:
        - - - activation_129
            - 0
            - 0
            - {}
        name: conv2d_133
      - class_name: Add
        config: {name: add_43, trainable: true}
        inbound_nodes:
        - - - add_42
            - 0
            - 0
            - &id054 {}
          - - conv2d_133
            - 0
            - 0
            - *id054
        name: add_43
      - class_name: BatchNormalization
        config:
          axis: 3
          beta_constraint: null
          beta_initializer:
            class_name: Zeros
            config: {}
          beta_regularizer: null
          center: true
          epsilon: 0.001
          gamma_constraint: null
          gamma_initializer:
            class_name: Ones
            config: {}
          gamma_regularizer: null
          momentum: 0.99
          moving_mean_initializer:
            class_name: Zeros
            config: {}
          moving_variance_initializer:
            class_name: Ones
            config: {}
          name: batch_normalization_130
          scale: true
          trainable: true
        inbound_nodes:
        - - - add_43
            - 0
            - 0
            - {}
        name: batch_normalization_130
      - class_name: Activation
        config: {activation: relu, name: activation_130, trainable: true}
        inbound_nodes:
        - - - batch_normalization_130
            - 0
            - 0
            - {}
        name: activation_130
      - class_name: Conv2D
        config:
          activation: linear
          activity_regularizer: null
          bias_constraint: null
          bias_initializer:
            class_name: Zeros
            config: {}
          bias_regularizer: null
          data_format: channels_last
          dilation_rate: *id001
          filters: 256
          kernel_constraint: null
          kernel_initializer:
            class_name: VarianceScaling
            config: {distribution: normal, mode: fan_in, scale: 2.0, seed: null}
          kernel_regularizer:
            class_name: L1L2
            config: {l1: 0.0, l2: 9.999999747378752e-05}
          kernel_size: *id011
          name: conv2d_134
          padding: same
          strides: *id007
          trainable: true
          use_bias: true
        inbound_nodes:
        - - - activation_130
            - 0
            - 0
            - {}
        name: conv2d_134
      - class_name: BatchNormalization
        config:
          axis: 3
          beta_constraint: null
          beta_initializer:
            class_name: Zeros
            config: {}
          beta_regularizer: null
          center: true
          epsilon: 0.001
          gamma_constraint: null
          gamma_initializer:
            class_name: Ones
            config: {}
          gamma_regularizer: null
          momentum: 0.99
          moving_mean_initializer:
            class_name: Zeros
            config: {}
          moving_variance_initializer:
            class_name: Ones
            config: {}
          name: batch_normalization_131
          scale: true
          trainable: true
        inbound_nodes:
        - - - conv2d_134
            - 0
            - 0
            - {}
        name: batch_normalization_131
      - class_name: Activation
        config: {activation: relu, name: activation_131, trainable: true}
        inbound_nodes:
        - - - batch_normalization_131
            - 0
            - 0
            - {}
        name: activation_131
      - class_name: Conv2D
        config:
          activation: linear
          activity_regularizer: null
          bias_constraint: null
          bias_initializer:
            class_name: Zeros
            config: {}
          bias_regularizer: null
          data_format: channels_last
          dilation_rate: *id001
          filters: 256
          kernel_constraint: null
          kernel_initializer:
            class_name: VarianceScaling
            config: {distribution: normal, mode: fan_in, scale: 2.0, seed: null}
          kernel_regularizer:
            class_name: L1L2
            config: {l1: 0.0, l2: 9.999999747378752e-05}
          kernel_size: *id008
          name: conv2d_135
          padding: same
          strides: *id005
          trainable: true
          use_bias: true
        inbound_nodes:
        - - - activation_131
            - 0
            - 0
            - {}
        name: conv2d_135
      - class_name: BatchNormalization
        config:
          axis: 3
          beta_constraint: null
          beta_initializer:
            class_name: Zeros
            config: {}
          beta_regularizer: null
          center: true
          epsilon: 0.001
          gamma_constraint: null
          gamma_initializer:
            class_name: Ones
            config: {}
          gamma_regularizer: null
          momentum: 0.99
          moving_mean_initializer:
            class_name: Zeros
            config: {}
          moving_variance_initializer:
            class_name: Ones
            config: {}
          name: batch_normalization_132
          scale: true
          trainable: true
        inbound_nodes:
        - - - conv2d_135
            - 0
            - 0
            - {}
        name: batch_normalization_132
      - class_name: Activation
        config: {activation: relu, name: activation_132, trainable: true}
        inbound_nodes:
        - - - batch_normalization_132
            - 0
            - 0
            - {}
        name: activation_132
      - class_name: Conv2D
        config:
          activation: linear
          activity_regularizer: null
          bias_constraint: null
          bias_initializer:
            class_name: Zeros
            config: {}
          bias_regularizer: null
          data_format: channels_last
          dilation_rate: *id001
          filters: 1024
          kernel_constraint: null
          kernel_initializer:
            class_name: VarianceScaling
            config: {distribution: normal, mode: fan_in, scale: 2.0, seed: null}
          kernel_regularizer:
            class_name: L1L2
            config: {l1: 0.0, l2: 9.999999747378752e-05}
          kernel_size: *id009
          name: conv2d_136
          padding: same
          strides: *id005
          trainable: true
          use_bias: true
        inbound_nodes:
        - - - activation_132
            - 0
            - 0
            - {}
        name: conv2d_136
      - class_name: Add
        config: {name: add_44, trainable: true}
        inbound_nodes:
        - - - add_43
            - 0
            - 0
            - &id055 {}
          - - conv2d_136
            - 0
            - 0
            - *id055
        name: add_44
      - class_name: BatchNormalization
        config:
          axis: 3
          beta_constraint: null
          beta_initializer:
            class_name: Zeros
            config: {}
          beta_regularizer: null
          center: true
          epsilon: 0.001
          gamma_constraint: null
          gamma_initializer:
            class_name: Ones
            config: {}
          gamma_regularizer: null
          momentum: 0.99
          moving_mean_initializer:
            class_name: Zeros
            config: {}
          moving_variance_initializer:
            class_name: Ones
            config: {}
          name: batch_normalization_133
          scale: true
          trainable: true
        inbound_nodes:
        - - - add_44
            - 0
            - 0
            - {}
        name: batch_normalization_133
      - class_name: Activation
        config: {activation: relu, name: activation_133, trainable: true}
        inbound_nodes:
        - - - batch_normalization_133
            - 0
            - 0
            - {}
        name: activation_133
      - class_name: Conv2D
        config:
          activation: linear
          activity_regularizer: null
          bias_constraint: null
          bias_initializer:
            class_name: Zeros
            config: {}
          bias_regularizer: null
          data_format: channels_last
          dilation_rate: *id001
          filters: 256
          kernel_constraint: null
          kernel_initializer:
            class_name: VarianceScaling
            config: {distribution: normal, mode: fan_in, scale: 2.0, seed: null}
          kernel_regularizer:
            class_name: L1L2
            config: {l1: 0.0, l2: 9.999999747378752e-05}
          kernel_size: *id011
          name: conv2d_137
          padding: same
          strides: *id007
          trainable: true
          use_bias: true
        inbound_nodes:
        - - - activation_133
            - 0
            - 0
            - {}
        name: conv2d_137
      - class_name: BatchNormalization
        config:
          axis: 3
          beta_constraint: null
          beta_initializer:
            class_name: Zeros
            config: {}
          beta_regularizer: null
          center: true
          epsilon: 0.001
          gamma_constraint: null
          gamma_initializer:
            class_name: Ones
            config: {}
          gamma_regularizer: null
          momentum: 0.99
          moving_mean_initializer:
            class_name: Zeros
            config: {}
          moving_variance_initializer:
            class_name: Ones
            config: {}
          name: batch_normalization_134
          scale: true
          trainable: true
        inbound_nodes:
        - - - conv2d_137
            - 0
            - 0
            - {}
        name: batch_normalization_134
      - class_name: Activation
        config: {activation: relu, name: activation_134, trainable: true}
        inbound_nodes:
        - - - batch_normalization_134
            - 0
            - 0
            - {}
        name: activation_134
      - class_name: Conv2D
        config:
          activation: linear
          activity_regularizer: null
          bias_constraint: null
          bias_initializer:
            class_name: Zeros
            config: {}
          bias_regularizer: null
          data_format: channels_last
          dilation_rate: *id001
          filters: 256
          kernel_constraint: null
          kernel_initializer:
            class_name: VarianceScaling
            config: {distribution: normal, mode: fan_in, scale: 2.0, seed: null}
          kernel_regularizer:
            class_name: L1L2
            config: {l1: 0.0, l2: 9.999999747378752e-05}
          kernel_size: *id008
          name: conv2d_138
          padding: same
          strides: *id005
          trainable: true
          use_bias: true
        inbound_nodes:
        - - - activation_134
            - 0
            - 0
            - {}
        name: conv2d_138
      - class_name: BatchNormalization
        config:
          axis: 3
          beta_constraint: null
          beta_initializer:
            class_name: Zeros
            config: {}
          beta_regularizer: null
          center: true
          epsilon: 0.001
          gamma_constraint: null
          gamma_initializer:
            class_name: Ones
            config: {}
          gamma_regularizer: null
          momentum: 0.99
          moving_mean_initializer:
            class_name: Zeros
            config: {}
          moving_variance_initializer:
            class_name: Ones
            config: {}
          name: batch_normalization_135
          scale: true
          trainable: true
        inbound_nodes:
        - - - conv2d_138
            - 0
            - 0
            - {}
        name: batch_normalization_135
      - class_name: Activation
        config: {activation: relu, name: activation_135, trainable: true}
        inbound_nodes:
        - - - batch_normalization_135
            - 0
            - 0
            - {}
        name: activation_135
      - class_name: Conv2D
        config:
          activation: linear
          activity_regularizer: null
          bias_constraint: null
          bias_initializer:
            class_name: Zeros
            config: {}
          bias_regularizer: null
          data_format: channels_last
          dilation_rate: *id001
          filters: 1024
          kernel_constraint: null
          kernel_initializer:
            class_name: VarianceScaling
            config: {distribution: normal, mode: fan_in, scale: 2.0, seed: null}
          kernel_regularizer:
            class_name: L1L2
            config: {l1: 0.0, l2: 9.999999747378752e-05}
          kernel_size: *id009
          name: conv2d_139
          padding: same
          strides: *id005
          trainable: true
          use_bias: true
        inbound_nodes:
        - - - activation_135
            - 0
            - 0
            - {}
        name: conv2d_139
      - class_name: Add
        config: {name: add_45, trainable: true}
        inbound_nodes:
        - - - add_44
            - 0
            - 0
            - &id056 {}
          - - conv2d_139
            - 0
            - 0
            - *id056
        name: add_45
      - class_name: BatchNormalization
        config:
          axis: 3
          beta_constraint: null
          beta_initializer:
            class_name: Zeros
            config: {}
          beta_regularizer: null
          center: true
          epsilon: 0.001
          gamma_constraint: null
          gamma_initializer:
            class_name: Ones
            config: {}
          gamma_regularizer: null
          momentum: 0.99
          moving_mean_initializer:
            class_name: Zeros
            config: {}
          moving_variance_initializer:
            class_name: Ones
            config: {}
          name: batch_normalization_136
          scale: true
          trainable: true
        inbound_nodes:
        - - - add_45
            - 0
            - 0
            - {}
        name: batch_normalization_136
      - class_name: Activation
        config: {activation: relu, name: activation_136, trainable: true}
        inbound_nodes:
        - - - batch_normalization_136
            - 0
            - 0
            - {}
        name: activation_136
      - class_name: Conv2D
        config:
          activation: linear
          activity_regularizer: null
          bias_constraint: null
          bias_initializer:
            class_name: Zeros
            config: {}
          bias_regularizer: null
          data_format: channels_last
          dilation_rate: *id001
          filters: 256
          kernel_constraint: null
          kernel_initializer:
            class_name: VarianceScaling
            config: {distribution: normal, mode: fan_in, scale: 2.0, seed: null}
          kernel_regularizer:
            class_name: L1L2
            config: {l1: 0.0, l2: 9.999999747378752e-05}
          kernel_size: *id011
          name: conv2d_140
          padding: same
          strides: *id007
          trainable: true
          use_bias: true
        inbound_nodes:
        - - - activation_136
            - 0
            - 0
            - {}
        name: conv2d_140
      - class_name: BatchNormalization
        config:
          axis: 3
          beta_constraint: null
          beta_initializer:
            class_name: Zeros
            config: {}
          beta_regularizer: null
          center: true
          epsilon: 0.001
          gamma_constraint: null
          gamma_initializer:
            class_name: Ones
            config: {}
          gamma_regularizer: null
          momentum: 0.99
          moving_mean_initializer:
            class_name: Zeros
            config: {}
          moving_variance_initializer:
            class_name: Ones
            config: {}
          name: batch_normalization_137
          scale: true
          trainable: true
        inbound_nodes:
        - - - conv2d_140
            - 0
            - 0
            - {}
        name: batch_normalization_137
      - class_name: Activation
        config: {activation: relu, name: activation_137, trainable: true}
        inbound_nodes:
        - - - batch_normalization_137
            - 0
            - 0
            - {}
        name: activation_137
      - class_name: Conv2D
        config:
          activation: linear
          activity_regularizer: null
          bias_constraint: null
          bias_initializer:
            class_name: Zeros
            config: {}
          bias_regularizer: null
          data_format: channels_last
          dilation_rate: *id001
          filters: 256
          kernel_constraint: null
          kernel_initializer:
            class_name: VarianceScaling
            config: {distribution: normal, mode: fan_in, scale: 2.0, seed: null}
          kernel_regularizer:
            class_name: L1L2
            config: {l1: 0.0, l2: 9.999999747378752e-05}
          kernel_size: *id008
          name: conv2d_141
          padding: same
          strides: *id005
          trainable: true
          use_bias: true
        inbound_nodes:
        - - - activation_137
            - 0
            - 0
            - {}
        name: conv2d_141
      - class_name: BatchNormalization
        config:
          axis: 3
          beta_constraint: null
          beta_initializer:
            class_name: Zeros
            config: {}
          beta_regularizer: null
          center: true
          epsilon: 0.001
          gamma_constraint: null
          gamma_initializer:
            class_name: Ones
            config: {}
          gamma_regularizer: null
          momentum: 0.99
          moving_mean_initializer:
            class_name: Zeros
            config: {}
          moving_variance_initializer:
            class_name: Ones
            config: {}
          name: batch_normalization_138
          scale: true
          trainable: true
        inbound_nodes:
        - - - conv2d_141
            - 0
            - 0
            - {}
        name: batch_normalization_138
      - class_name: Activation
        config: {activation: relu, name: activation_138, trainable: true}
        inbound_nodes:
        - - - batch_normalization_138
            - 0
            - 0
            - {}
        name: activation_138
      - class_name: Conv2D
        config:
          activation: linear
          activity_regularizer: null
          bias_constraint: null
          bias_initializer:
            class_name: Zeros
            config: {}
          bias_regularizer: null
          data_format: channels_last
          dilation_rate: *id001
          filters: 1024
          kernel_constraint: null
          kernel_initializer:
            class_name: VarianceScaling
            config: {distribution: normal, mode: fan_in, scale: 2.0, seed: null}
          kernel_regularizer:
            class_name: L1L2
            config: {l1: 0.0, l2: 9.999999747378752e-05}
          kernel_size: *id009
          name: conv2d_142
          padding: same
          strides: *id005
          trainable: true
          use_bias: true
        inbound_nodes:
        - - - activation_138
            - 0
            - 0
            - {}
        name: conv2d_142
      - class_name: Add
        config: {name: add_46, trainable: true}
        inbound_nodes:
        - - - add_45
            - 0
            - 0
            - &id057 {}
          - - conv2d_142
            - 0
            - 0
            - *id057
        name: add_46
      - class_name: BatchNormalization
        config:
          axis: 3
          beta_constraint: null
          beta_initializer:
            class_name: Zeros
            config: {}
          beta_regularizer: null
          center: true
          epsilon: 0.001
          gamma_constraint: null
          gamma_initializer:
            class_name: Ones
            config: {}
          gamma_regularizer: null
          momentum: 0.99
          moving_mean_initializer:
            class_name: Zeros
            config: {}
          moving_variance_initializer:
            class_name: Ones
            config: {}
          name: batch_normalization_139
          scale: true
          trainable: true
        inbound_nodes:
        - - - add_46
            - 0
            - 0
            - {}
        name: batch_normalization_139
      - class_name: Activation
        config: {activation: relu, name: activation_139, trainable: true}
        inbound_nodes:
        - - - batch_normalization_139
            - 0
            - 0
            - {}
        name: activation_139
      - class_name: Conv2D
        config:
          activation: linear
          activity_regularizer: null
          bias_constraint: null
          bias_initializer:
            class_name: Zeros
            config: {}
          bias_regularizer: null
          data_format: channels_last
          dilation_rate: *id001
          filters: 256
          kernel_constraint: null
          kernel_initializer:
            class_name: VarianceScaling
            config: {distribution: normal, mode: fan_in, scale: 2.0, seed: null}
          kernel_regularizer:
            class_name: L1L2
            config: {l1: 0.0, l2: 9.999999747378752e-05}
          kernel_size: *id011
          name: conv2d_143
          padding: same
          strides: *id007
          trainable: true
          use_bias: true
        inbound_nodes:
        - - - activation_139
            - 0
            - 0
            - {}
        name: conv2d_143
      - class_name: BatchNormalization
        config:
          axis: 3
          beta_constraint: null
          beta_initializer:
            class_name: Zeros
            config: {}
          beta_regularizer: null
          center: true
          epsilon: 0.001
          gamma_constraint: null
          gamma_initializer:
            class_name: Ones
            config: {}
          gamma_regularizer: null
          momentum: 0.99
          moving_mean_initializer:
            class_name: Zeros
            config: {}
          moving_variance_initializer:
            class_name: Ones
            config: {}
          name: batch_normalization_140
          scale: true
          trainable: true
        inbound_nodes:
        - - - conv2d_143
            - 0
            - 0
            - {}
        name: batch_normalization_140
      - class_name: Activation
        config: {activation: relu, name: activation_140, trainable: true}
        inbound_nodes:
        - - - batch_normalization_140
            - 0
            - 0
            - {}
        name: activation_140
      - class_name: Conv2D
        config:
          activation: linear
          activity_regularizer: null
          bias_constraint: null
          bias_initializer:
            class_name: Zeros
            config: {}
          bias_regularizer: null
          data_format: channels_last
          dilation_rate: *id001
          filters: 256
          kernel_constraint: null
          kernel_initializer:
            class_name: VarianceScaling
            config: {distribution: normal, mode: fan_in, scale: 2.0, seed: null}
          kernel_regularizer:
            class_name: L1L2
            config: {l1: 0.0, l2: 9.999999747378752e-05}
          kernel_size: *id008
          name: conv2d_144
          padding: same
          strides: *id005
          trainable: true
          use_bias: true
        inbound_nodes:
        - - - activation_140
            - 0
            - 0
            - {}
        name: conv2d_144
      - class_name: BatchNormalization
        config:
          axis: 3
          beta_constraint: null
          beta_initializer:
            class_name: Zeros
            config: {}
          beta_regularizer: null
          center: true
          epsilon: 0.001
          gamma_constraint: null
          gamma_initializer:
            class_name: Ones
            config: {}
          gamma_regularizer: null
          momentum: 0.99
          moving_mean_initializer:
            class_name: Zeros
            config: {}
          moving_variance_initializer:
            class_name: Ones
            config: {}
          name: batch_normalization_141
          scale: true
          trainable: true
        inbound_nodes:
        - - - conv2d_144
            - 0
            - 0
            - {}
        name: batch_normalization_141
      - class_name: Activation
        config: {activation: relu, name: activation_141, trainable: true}
        inbound_nodes:
        - - - batch_normalization_141
            - 0
            - 0
            - {}
        name: activation_141
      - class_name: Conv2D
        config:
          activation: linear
          activity_regularizer: null
          bias_constraint: null
          bias_initializer:
            class_name: Zeros
            config: {}
          bias_regularizer: null
          data_format: channels_last
          dilation_rate: *id001
          filters: 1024
          kernel_constraint: null
          kernel_initializer:
            class_name: VarianceScaling
            config: {distribution: normal, mode: fan_in, scale: 2.0, seed: null}
          kernel_regularizer:
            class_name: L1L2
            config: {l1: 0.0, l2: 9.999999747378752e-05}
          kernel_size: *id009
          name: conv2d_145
          padding: same
          strides: *id005
          trainable: true
          use_bias: true
        inbound_nodes:
        - - - activation_141
            - 0
            - 0
            - {}
        name: conv2d_145
      - class_name: Add
        config: {name: add_47, trainable: true}
        inbound_nodes:
        - - - add_46
            - 0
            - 0
            - &id058 {}
          - - conv2d_145
            - 0
            - 0
            - *id058
        name: add_47
      - class_name: BatchNormalization
        config:
          axis: 3
          beta_constraint: null
          beta_initializer:
            class_name: Zeros
            config: {}
          beta_regularizer: null
          center: true
          epsilon: 0.001
          gamma_constraint: null
          gamma_initializer:
            class_name: Ones
            config: {}
          gamma_regularizer: null
          momentum: 0.99
          moving_mean_initializer:
            class_name: Zeros
            config: {}
          moving_variance_initializer:
            class_name: Ones
            config: {}
          name: batch_normalization_142
          scale: true
          trainable: true
        inbound_nodes:
        - - - add_47
            - 0
            - 0
            - {}
        name: batch_normalization_142
      - class_name: Activation
        config: {activation: relu, name: activation_142, trainable: true}
        inbound_nodes:
        - - - batch_normalization_142
            - 0
            - 0
            - {}
        name: activation_142
      - class_name: Conv2D
        config:
          activation: linear
          activity_regularizer: null
          bias_constraint: null
          bias_initializer:
            class_name: Zeros
            config: {}
          bias_regularizer: null
          data_format: channels_last
          dilation_rate: *id001
          filters: 512
          kernel_constraint: null
          kernel_initializer:
            class_name: VarianceScaling
            config: {distribution: normal, mode: fan_in, scale: 2.0, seed: null}
          kernel_regularizer:
            class_name: L1L2
            config: {l1: 0.0, l2: 9.999999747378752e-05}
          kernel_size: *id011
          name: conv2d_146
          padding: same
          strides: *id022
          trainable: true
          use_bias: true
        inbound_nodes:
        - - - activation_142
            - 0
            - 0
            - {}
        name: conv2d_146
      - class_name: BatchNormalization
        config:
          axis: 3
          beta_constraint: null
          beta_initializer:
            class_name: Zeros
            config: {}
          beta_regularizer: null
          center: true
          epsilon: 0.001
          gamma_constraint: null
          gamma_initializer:
            class_name: Ones
            config: {}
          gamma_regularizer: null
          momentum: 0.99
          moving_mean_initializer:
            class_name: Zeros
            config: {}
          moving_variance_initializer:
            class_name: Ones
            config: {}
          name: batch_normalization_143
          scale: true
          trainable: true
        inbound_nodes:
        - - - conv2d_146
            - 0
            - 0
            - {}
        name: batch_normalization_143
      - class_name: Activation
        config: {activation: relu, name: activation_143, trainable: true}
        inbound_nodes:
        - - - batch_normalization_143
            - 0
            - 0
            - {}
        name: activation_143
      - class_name: Conv2D
        config:
          activation: linear
          activity_regularizer: null
          bias_constraint: null
          bias_initializer:
            class_name: Zeros
            config: {}
          bias_regularizer: null
          data_format: channels_last
          dilation_rate: *id001
          filters: 512
          kernel_constraint: null
          kernel_initializer:
            class_name: VarianceScaling
            config: {distribution: normal, mode: fan_in, scale: 2.0, seed: null}
          kernel_regularizer:
            class_name: L1L2
            config: {l1: 0.0, l2: 9.999999747378752e-05}
          kernel_size: *id008
          name: conv2d_147
          padding: same
          strides: *id005
          trainable: true
          use_bias: true
        inbound_nodes:
        - - - activation_143
            - 0
            - 0
            - {}
        name: conv2d_147
      - class_name: BatchNormalization
        config:
          axis: 3
          beta_constraint: null
          beta_initializer:
            class_name: Zeros
            config: {}
          beta_regularizer: null
          center: true
          epsilon: 0.001
          gamma_constraint: null
          gamma_initializer:
            class_name: Ones
            config: {}
          gamma_regularizer: null
          momentum: 0.99
          moving_mean_initializer:
            class_name: Zeros
            config: {}
          moving_variance_initializer:
            class_name: Ones
            config: {}
          name: batch_normalization_144
          scale: true
          trainable: true
        inbound_nodes:
        - - - conv2d_147
            - 0
            - 0
            - {}
        name: batch_normalization_144
      - class_name: Activation
        config: {activation: relu, name: activation_144, trainable: true}
        inbound_nodes:
        - - - batch_normalization_144
            - 0
            - 0
            - {}
        name: activation_144
      - class_name: Conv2D
        config:
          activation: linear
          activity_regularizer: null
          bias_constraint: null
          bias_initializer:
            class_name: Zeros
            config: {}
          bias_regularizer: null
          data_format: channels_last
          dilation_rate: *id001
          filters: 2048
          kernel_constraint: null
          kernel_initializer:
            class_name: VarianceScaling
            config: {distribution: normal, mode: fan_in, scale: 2.0, seed: null}
          kernel_regularizer:
            class_name: L1L2
            config: {l1: 0.0, l2: 9.999999747378752e-05}
          kernel_size: *id013
          name: conv2d_149
          padding: valid
          strides: !!python/tuple [2, 1]
          trainable: true
          use_bias: true
        inbound_nodes:
        - - - add_47
            - 0
            - 0
            - {}
        name: conv2d_149
      - class_name: Conv2D
        config:
          activation: linear
          activity_regularizer: null
          bias_constraint: null
          bias_initializer:
            class_name: Zeros
            config: {}
          bias_regularizer: null
          data_format: channels_last
          dilation_rate: *id001
          filters: 2048
          kernel_constraint: null
          kernel_initializer:
            class_name: VarianceScaling
            config: {distribution: normal, mode: fan_in, scale: 2.0, seed: null}
          kernel_regularizer:
            class_name: L1L2
            config: {l1: 0.0, l2: 9.999999747378752e-05}
          kernel_size: *id009
          name: conv2d_148
          padding: same
          strides: *id005
          trainable: true
          use_bias: true
        inbound_nodes:
        - - - activation_144
            - 0
            - 0
            - {}
        name: conv2d_148
      - class_name: Add
        config: {name: add_48, trainable: true}
        inbound_nodes:
        - - - conv2d_149
            - 0
            - 0
            - &id059 {}
          - - conv2d_148
            - 0
            - 0
            - *id059
        name: add_48
      - class_name: BatchNormalization
        config:
          axis: 3
          beta_constraint: null
          beta_initializer:
            class_name: Zeros
            config: {}
          beta_regularizer: null
          center: true
          epsilon: 0.001
          gamma_constraint: null
          gamma_initializer:
            class_name: Ones
            config: {}
          gamma_regularizer: null
          momentum: 0.99
          moving_mean_initializer:
            class_name: Zeros
            config: {}
          moving_variance_initializer:
            class_name: Ones
            config: {}
          name: batch_normalization_145
          scale: true
          trainable: true
        inbound_nodes:
        - - - add_48
            - 0
            - 0
            - {}
        name: batch_normalization_145
      - class_name: Activation
        config: {activation: relu, name: activation_145, trainable: true}
        inbound_nodes:
        - - - batch_normalization_145
            - 0
            - 0
            - {}
        name: activation_145
      - class_name: Conv2D
        config:
          activation: linear
          activity_regularizer: null
          bias_constraint: null
          bias_initializer:
            class_name: Zeros
            config: {}
          bias_regularizer: null
          data_format: channels_last
          dilation_rate: *id001
          filters: 512
          kernel_constraint: null
          kernel_initializer:
            class_name: VarianceScaling
            config: {distribution: normal, mode: fan_in, scale: 2.0, seed: null}
          kernel_regularizer:
            class_name: L1L2
            config: {l1: 0.0, l2: 9.999999747378752e-05}
          kernel_size: *id011
          name: conv2d_150
          padding: same
          strides: *id007
          trainable: true
          use_bias: true
        inbound_nodes:
        - - - activation_145
            - 0
            - 0
            - {}
        name: conv2d_150
      - class_name: BatchNormalization
        config:
          axis: 3
          beta_constraint: null
          beta_initializer:
            class_name: Zeros
            config: {}
          beta_regularizer: null
          center: true
          epsilon: 0.001
          gamma_constraint: null
          gamma_initializer:
            class_name: Ones
            config: {}
          gamma_regularizer: null
          momentum: 0.99
          moving_mean_initializer:
            class_name: Zeros
            config: {}
          moving_variance_initializer:
            class_name: Ones
            config: {}
          name: batch_normalization_146
          scale: true
          trainable: true
        inbound_nodes:
        - - - conv2d_150
            - 0
            - 0
            - {}
        name: batch_normalization_146
      - class_name: Activation
        config: {activation: relu, name: activation_146, trainable: true}
        inbound_nodes:
        - - - batch_normalization_146
            - 0
            - 0
            - {}
        name: activation_146
      - class_name: Conv2D
        config:
          activation: linear
          activity_regularizer: null
          bias_constraint: null
          bias_initializer:
            class_name: Zeros
            config: {}
          bias_regularizer: null
          data_format: channels_last
          dilation_rate: *id001
          filters: 512
          kernel_constraint: null
          kernel_initializer:
            class_name: VarianceScaling
            config: {distribution: normal, mode: fan_in, scale: 2.0, seed: null}
          kernel_regularizer:
            class_name: L1L2
            config: {l1: 0.0, l2: 9.999999747378752e-05}
          kernel_size: *id008
          name: conv2d_151
          padding: same
          strides: *id005
          trainable: true
          use_bias: true
        inbound_nodes:
        - - - activation_146
            - 0
            - 0
            - {}
        name: conv2d_151
      - class_name: BatchNormalization
        config:
          axis: 3
          beta_constraint: null
          beta_initializer:
            class_name: Zeros
            config: {}
          beta_regularizer: null
          center: true
          epsilon: 0.001
          gamma_constraint: null
          gamma_initializer:
            class_name: Ones
            config: {}
          gamma_regularizer: null
          momentum: 0.99
          moving_mean_initializer:
            class_name: Zeros
            config: {}
          moving_variance_initializer:
            class_name: Ones
            config: {}
          name: batch_normalization_147
          scale: true
          trainable: true
        inbound_nodes:
        - - - conv2d_151
            - 0
            - 0
            - {}
        name: batch_normalization_147
      - class_name: Activation
        config: {activation: relu, name: activation_147, trainable: true}
        inbound_nodes:
        - - - batch_normalization_147
            - 0
            - 0
            - {}
        name: activation_147
      - class_name: Conv2D
        config:
          activation: linear
          activity_regularizer: null
          bias_constraint: null
          bias_initializer:
            class_name: Zeros
            config: {}
          bias_regularizer: null
          data_format: channels_last
          dilation_rate: *id001
          filters: 2048
          kernel_constraint: null
          kernel_initializer:
            class_name: VarianceScaling
            config: {distribution: normal, mode: fan_in, scale: 2.0, seed: null}
          kernel_regularizer:
            class_name: L1L2
            config: {l1: 0.0, l2: 9.999999747378752e-05}
          kernel_size: *id009
          name: conv2d_152
          padding: same
          strides: *id005
          trainable: true
          use_bias: true
        inbound_nodes:
        - - - activation_147
            - 0
            - 0
            - {}
        name: conv2d_152
      - class_name: Add
        config: {name: add_49, trainable: true}
        inbound_nodes:
        - - - add_48
            - 0
            - 0
            - &id060 {}
          - - conv2d_152
            - 0
            - 0
            - *id060
        name: add_49
      - class_name: BatchNormalization
        config:
          axis: 3
          beta_constraint: null
          beta_initializer:
            class_name: Zeros
            config: {}
          beta_regularizer: null
          center: true
          epsilon: 0.001
          gamma_constraint: null
          gamma_initializer:
            class_name: Ones
            config: {}
          gamma_regularizer: null
          momentum: 0.99
          moving_mean_initializer:
            class_name: Zeros
            config: {}
          moving_variance_initializer:
            class_name: Ones
            config: {}
          name: batch_normalization_148
          scale: true
          trainable: true
        inbound_nodes:
        - - - add_49
            - 0
            - 0
            - {}
        name: batch_normalization_148
      - class_name: Activation
        config: {activation: relu, name: activation_148, trainable: true}
        inbound_nodes:
        - - - batch_normalization_148
            - 0
            - 0
            - {}
        name: activation_148
      - class_name: Conv2D
        config:
          activation: linear
          activity_regularizer: null
          bias_constraint: null
          bias_initializer:
            class_name: Zeros
            config: {}
          bias_regularizer: null
          data_format: channels_last
          dilation_rate: *id001
          filters: 512
          kernel_constraint: null
          kernel_initializer:
            class_name: VarianceScaling
            config: {distribution: normal, mode: fan_in, scale: 2.0, seed: null}
          kernel_regularizer:
            class_name: L1L2
            config: {l1: 0.0, l2: 9.999999747378752e-05}
          kernel_size: *id011
          name: conv2d_153
          padding: same
          strides: *id007
          trainable: true
          use_bias: true
        inbound_nodes:
        - - - activation_148
            - 0
            - 0
            - {}
        name: conv2d_153
      - class_name: BatchNormalization
        config:
          axis: 3
          beta_constraint: null
          beta_initializer:
            class_name: Zeros
            config: {}
          beta_regularizer: null
          center: true
          epsilon: 0.001
          gamma_constraint: null
          gamma_initializer:
            class_name: Ones
            config: {}
          gamma_regularizer: null
          momentum: 0.99
          moving_mean_initializer:
            class_name: Zeros
            config: {}
          moving_variance_initializer:
            class_name: Ones
            config: {}
          name: batch_normalization_149
          scale: true
          trainable: true
        inbound_nodes:
        - - - conv2d_153
            - 0
            - 0
            - {}
        name: batch_normalization_149
      - class_name: Activation
        config: {activation: relu, name: activation_149, trainable: true}
        inbound_nodes:
        - - - batch_normalization_149
            - 0
            - 0
            - {}
        name: activation_149
      - class_name: Conv2D
        config:
          activation: linear
          activity_regularizer: null
          bias_constraint: null
          bias_initializer:
            class_name: Zeros
            config: {}
          bias_regularizer: null
          data_format: channels_last
          dilation_rate: *id001
          filters: 512
          kernel_constraint: null
          kernel_initializer:
            class_name: VarianceScaling
            config: {distribution: normal, mode: fan_in, scale: 2.0, seed: null}
          kernel_regularizer:
            class_name: L1L2
            config: {l1: 0.0, l2: 9.999999747378752e-05}
          kernel_size: *id008
          name: conv2d_154
          padding: same
          strides: *id005
          trainable: true
          use_bias: true
        inbound_nodes:
        - - - activation_149
            - 0
            - 0
            - {}
        name: conv2d_154
      - class_name: BatchNormalization
        config:
          axis: 3
          beta_constraint: null
          beta_initializer:
            class_name: Zeros
            config: {}
          beta_regularizer: null
          center: true
          epsilon: 0.001
          gamma_constraint: null
          gamma_initializer:
            class_name: Ones
            config: {}
          gamma_regularizer: null
          momentum: 0.99
          moving_mean_initializer:
            class_name: Zeros
            config: {}
          moving_variance_initializer:
            class_name: Ones
            config: {}
          name: batch_normalization_150
          scale: true
          trainable: true
        inbound_nodes:
        - - - conv2d_154
            - 0
            - 0
            - {}
        name: batch_normalization_150
      - class_name: Activation
        config: {activation: relu, name: activation_150, trainable: true}
        inbound_nodes:
        - - - batch_normalization_150
            - 0
            - 0
            - {}
        name: activation_150
      - class_name: Conv2D
        config:
          activation: linear
          activity_regularizer: null
          bias_constraint: null
          bias_initializer:
            class_name: Zeros
            config: {}
          bias_regularizer: null
          data_format: channels_last
          dilation_rate: *id001
          filters: 2048
          kernel_constraint: null
          kernel_initializer:
            class_name: VarianceScaling
            config: {distribution: normal, mode: fan_in, scale: 2.0, seed: null}
          kernel_regularizer:
            class_name: L1L2
            config: {l1: 0.0, l2: 9.999999747378752e-05}
          kernel_size: *id009
          name: conv2d_155
          padding: same
          strides: *id005
          trainable: true
          use_bias: true
        inbound_nodes:
        - - - activation_150
            - 0
            - 0
            - {}
        name: conv2d_155
      - class_name: Add
        config: {name: add_50, trainable: true}
        inbound_nodes:
        - - - add_49
            - 0
            - 0
            - &id061 {}
          - - conv2d_155
            - 0
            - 0
            - *id061
        name: add_50
      - class_name: BatchNormalization
        config:
          axis: 3
          beta_constraint: null
          beta_initializer:
            class_name: Zeros
            config: {}
          beta_regularizer: null
          center: true
          epsilon: 0.001
          gamma_constraint: null
          gamma_initializer:
            class_name: Ones
            config: {}
          gamma_regularizer: null
          momentum: 0.99
          moving_mean_initializer:
            class_name: Zeros
            config: {}
          moving_variance_initializer:
            class_name: Ones
            config: {}
          name: batch_normalization_151
          scale: true
          trainable: true
        inbound_nodes:
        - - - add_50
            - 0
            - 0
            - {}
        name: batch_normalization_151
      - class_name: Activation
        config: {activation: relu, name: activation_151, trainable: true}
        inbound_nodes:
        - - - batch_normalization_151
            - 0
            - 0
            - {}
        name: activation_151
      - class_name: AveragePooling2D
        config:
          data_format: channels_last
          name: average_pooling2d_1
          padding: valid
          pool_size: !!python/tuple [56, 1]
          strides: !!python/tuple [1, 1]
          trainable: true
        inbound_nodes:
        - - - activation_151
            - 0
            - 0
            - {}
        name: average_pooling2d_1
      - class_name: Flatten
        config: {name: flatten_1, trainable: true}
        inbound_nodes:
        - - - average_pooling2d_1
            - 0
            - 0
            - {}
        name: flatten_1
      - class_name: Dense
        config:
          activation: softmax
          activity_regularizer: null
          bias_constraint: null
          bias_initializer:
            class_name: Zeros
            config: {}
          bias_regularizer: null
          kernel_constraint: null
          kernel_initializer:
            class_name: VarianceScaling
            config: {distribution: normal, mode: fan_in, scale: 2.0, seed: null}
          kernel_regularizer: null
          name: dense_1
          trainable: true
          units: 32
          use_bias: true
        inbound_nodes:
        - - - flatten_1
            - 0
            - 0
            - {}
        name: dense_1
      name: model_1
      output_layers:
      - [dense_1, 0, 0]
    inbound_nodes:
    - - - reshape_1
        - 0
        - 0
        - {}
    name: model_1
  - class_name: Dense
    config:
      activation: sigmoid
      activity_regularizer: null
      bias_constraint: null
      bias_initializer:
        class_name: Zeros
        config: {}
      bias_regularizer: null
      kernel_constraint: null
      kernel_initializer:
        class_name: VarianceScaling
        config: {distribution: uniform, mode: fan_avg, scale: 1.0, seed: null}
      kernel_regularizer: null
      name: dense_2
      trainable: true
      units: 1
      use_bias: true
    inbound_nodes:
    - - - model_1
        - 1
        - 0
        - {}
    name: dense_2
  name: model_2
  output_layers:
  - [dense_2, 0, 0]
keras_version: 2.0.9
